data/model/weights_lenet5.pth (torch, 255451 bytes, 10 tensors)

conv1.weight f4 [6, 1, 5, 5]
00000000: 9f4c d8bd 8499 e3bd 583e b73d 483e 513e
00000010: 39a4 b3bb 2f9a a63e 4450 f83e 5f15 ef3e
00000020: 9931 853e 3794 123e 4ee1 8c3e 8eaa 8c3e
00000030: c5c2 533e 127e 0c3e cd2a b83d 4e6c a5be
00000040: 93b4 99be 57bf 05bf 53dc f4be 5a5d 95be
00000050: d40c 62be 2bc5 d7be 6e5f d9be dd1b 5bbe
00000060: c5dd a23d 2c17 0b3e 162d 953e 6c6b 933e
00000070: 45f9 e93e 9419 bf3e 1314 9bbd eab8 c03e
00000080: 3b89 ff3e 9995 873e 421f 0e3e 67d2 0fbc
00000090: efa7 6b3e 9411 2bbd 8eea cabe 6b2b 0ebf
000000a0: dbaf 82bd c30a 013e 49d3 82be 802a e4be
000000b0: 40a5 c7be fd6e c7bd e547 e73d 41b7 6ebd
000000c0: a413 b9bd 2e80 873e 2db3 8abe 6d98 7ebe
000000d0: fe0e 8cbe c4df 45be e670 0d3d e236 d1bd
000000e0: 5991 9cbe a833 83bd 6c85 2abe 07d7 09be
000000f0: 95aa 7fbe 7776 8fbe 42bc 25be 7ddc 8dbe
00000100: 3ca8 8abe 2273 a3be bbb7 6cbd 96c0 0bbe
00000110: 6db0 83be a25d 4abe 6243 58be 631a a0be
00000120: 10e8 7cbe 20f2 12be c6c2 04be 8325 303f
00000130: 6e00 aabe c7d1 34bf b60d 9bbe 447d 043f
00000140: 9515 273f 1b45 fd3c 62d8 92be 3a36 f7bc
00000150: 791c b13e ce16 a7bc 03b2 ae3e 50b0 203d
00000160: 81b3 83be 97aa 793c 475a 08be 0423 13bd
00000170: 51be e3ba 1fb1 363d 22aa 40be 0e3e eaba
00000180: 9821 83be ff05 af3c 4fb3 35be 595e d03c
00000190: 5bbc 863e a5b3 0b3e 773d 4abe f24c cabd
000001a0: bf50 4abe 75d3 e63e 4cda 063f d8c8 863e
000001b0: f91d db3d c709 843d 3ecf 7d3e 5afe c43e
000001c0: e2c0 e43e 2157 3e3e f720 073e ca13 61bd
000001d0: 6e88 f03d 6cdb 453e 5d21 1c3e 17de be3c
000001e0: 39f5 0cbe 5f60 0bbd 7fec a53d 7efe 1d3e
000001f0: fac0 473d e335 69bd 5934 af3e e7ee 833e
00000200: 6ee7 3cbe 685a b83d ae1c cf3d d590 353f
00000210: 68f7 603e 71b7 a8be 7095 89bd 88e3 fc3e
00000220: a226 093f 5b0e 64be e4b4 f2be e540 57be
00000230: d59f d23e 09b9 063e 7208 96be 6d08 a2be
00000240: 220c 823c c9aa 853e 2ca8 56bd 4f1f 94be
00000250: 84f3 57be 1b72 cabd
-0.10561489 -0.11113265 0.08947438 0.20433915 -0.0054822234 0.32539508 0.48498738 0.46695992
0.26014403 0.14314352 0.27515644 0.27473873 0.20679767 0.13719967 0.089925386 -0.32309192
-0.3002058 -0.52245086 -0.47824344 -0.29172784 -0.22075206 -0.42142615 -0.4245562 -0.21397348
0.079524554 0.13583058 0.2913596 0.28792894 0.4569799 0.37324202 -0.07572188 0.37641078
0.49909386 0.2648132 0.13879111 -0.008778191 0.2301328 -0.04176481 -0.39632076 -0.55535
-0.06381198 0.12601762 -0.25551823 -0.44563675 -0.38993263 -0.09737966 0.1129301 -0.058280233
-0.09036949 0.2646498 -0.27089825 -0.24862833 -0.27355188 -0.19323641 0.034531496 -0.10215546
-0.3057964 -0.06406337 -0.16652459 -0.13460933 -0.24967416 -0.2802007 -0.16185096 -0.27707282
-0.27081478 -0.31923777 -0.057792407 -0.13647684 -0.2572054 -0.1976228 -0.21119455 -0.3127013
-0.246979 -0.14350176 -0.12964925 0.6880724 -0.33203453 -0.70632595 -0.30283898 0.5175364
0.65267307 0.030916741 -0.28680712 -0.030177224 0.34592035 -0.020396616 0.34120187 0.039230645
-0.25722888 0.015238426 -0.13315688 -0.035922065 -0.0017375444 0.04460251 -0.188149 -0.0017871277
-0.25611567 0.021365164 -0.17744182 0.025435613 0.2631558 0.13642748 -0.1975001 -0.098779574
-0.19757365 0.45083204 0.52676845 0.26325107 0.10699076 0.064471774 0.24786088 0.38475305
0.44678408 0.18587925 0.13196169 -0.054950513 0.11744772 0.19321984 0.15247102 0.02329926
-0.1376542 -0.034027454 0.08101749 0.15429112 0.04876802 -0.056936156 0.34219626 0.25768206
-0.18447658 0.090016186 0.10112892 0.7092412 0.21969378 -0.32952455 -0.06717956 0.49392343
0.53574574 -0.22271101 -0.47403634 -0.21020849 0.41137567 0.13156523 -0.29303318 -0.31647053
0.015874926 0.2610686 -0.052406475 -0.28930137 -0.21088988 -0.09885045

conv1.bias f4 [6]
00000000: 1fa1 30bd 2346 af3e 6d79 7c3d 0657 703e
00000010: 2d1b 0a3f 0b95 6c3e
-0.043122407 0.34233198 0.06163924 0.23470697 0.53947717 0.2310373

conv2.weight f4 [16, 6, 5, 5]
00000000: af8c 963d cd5b d53d 3a34 ba3d aa5c 193e
00000010: 649c b0ba 57bd 573d 2258 873d 04ec e23d
00000020: c3cc ab3d 1dca bd3b 701b c43b 1b1a c93d
00000030: dfb6 f23d 5476 d23a 9582 63bd 4144 1b3d
00000040: e924 66bd 80bc 47bc 3c2b c4bc e121 57bd
00000050: 94ea aa3b 5fd8 08be e713 50be d14d 02be
00000060: 5e63 3dbd 471c 233d 28da 783d 5fbc b13d
00000070: f06b 003c 1c33 cbbc 8768 22bd 467e 8f3d
00000080: bfc3 99bc 2bd5 bbbd d9de be3d 4b35 f9bd
00000090: 675b c7bd 2673 d7bd 00e1 67be e11d 56be
000000a0: 327b b73d de0d b03d 127f 303e 1ee2 0c3e
000000b0: 87e3 883d ad4a 273d f76f e63d a94b 183e
000000c0: 1e96 953d b739 69bc 47c0 d83d d826 8cb9
000000d0: f2d3 0c3e 1e76 22bc 21f0 1c3b 81cd 8a3d
000000e0: 818b 043e f447 b83d e55e 2a3d 87a7 273d
000000f0: dc2e b33c 0d50 91bd 520a 62bd 5b1d acbd
00000100: 09e1 9dbc 21b1 98bd c361 07be 042b ecbd
00000110: d118 1ebe 3f1f a0bd e7f4 7e3c 1477 8bba
00000120: d5f9 8f3c b4fd 8dbd 0d38 7cbc c96e 5a3c
00000130: aa97 913d 95e4 023e 452c bf3c 9b1d 103d
00000140: b955 aebd 98c5 0fbd 848f e2bd 6643 0dbd
00000150: 839f 843d fe29 36be 3a3b e5bd 1da3 16be
00000160: f5c5 15be b533 ff3b db16 1fbb 22a2 9d3d
00000170: 32a7 1c3d 87ad c53d 829c 103d 35cd 2a3e
00000180: 8189 cf3d bb91 c23d 52ff c83d 63b2 053e
00000190: 2a03 14bd 2277 6b3d 45fc 86bc 86d2 e1bd
000001a0: 972c f9bc d124 93be ffcf 5abe 67d9 1cbe
000001b0: 0b36 aebe 16ac a7be 4feb d5bc 7f91 a73c
000001c0: 2e04 61bd d742 673c cdb6 1cbe 8d84 2f3e
000001d0: 05fa 373e ce3a b13d eb1c 6b3e 8dd6 a03d
000001e0: dd93 0c3e 1f1c 3d3d 7f73 47bc 4b8e 7abd
000001f0: 289c 00bd 336e 7bbd 4b92 c7bc e6f1 f23d
00000200: 8973 aabb 8656 a13d 66ad acbd dbee 0bbe
00000210: dce4 3abe 00c7 0cbe 3beb eebd d2f4 10ba
00000220: efbe 1cbe 0acc 35be 13eb c0bd a953 e5bd
00000230: 9e6f b33d ad7a 103e 6a71 753d ce0a 013b
00000240: bd13 973d 1740 053e 19a7 b43c bca5 a63d
00000250: 9eaa c3bb dcbe 133e de15 aebd 0601 053e
00000260: 34bf 6c3e cba1 013e a2f1 f23d c4b1 84bd
00000270: f636 14bd 4912 12be f9e8 05bd 836a 11be
00000280: 33b2 903d 36f5 f33d e0f8 763e 9f43 b93d
00000290: ef64 873d e25d 83bd c7fa 66bd ec90 5c3d
000002a0: 7a42 003e db39 47be 88c9 a23c 5626 443d
000002b0: 41d7 2fbd 86bf a93c 2df3 133d 493f 6b3d
000002c0: 2495 0b3c 8ada 253e 645d 063e 9f6b 353d
000002d0: 9496 ccbd 4629 29bd 7680 2abd 23b2 99bd
000002e0: 635e adbd cc5f ca3c fa3a cebd 092a 03be
000002f0: a208 003d f166 abbd a5bc 2a3e 0f5f ed3e
00000300: 8861 1a3f f84a 9c3e dd33 0b3e d60e 2cbe
00000310: 464a 81be 483d 49be 01cd 29be 89df 0ebd
00000320: 6565 393d 1b69 6b3d fee9 8abd 20e2 d9ba
00000330: fdd7 763b b703 00bc 4001 b63d 3393 633d
00000340: bf29 3bbd a07c fd3b 10c4 c0bd 6f98 81bd
00000350: 4125 83be bc1f 55be adaa 2ebc 8d81 81ba
00000360: e697 943d c1fe edbd c24c a13c 4e0d 323d
00000370: 53ae 58bd 4818 a9bc e700 5dbd 328d aabd
00000380: faa3 d9bd 7a79 e33d 54ad 0f3e d2dd 673e
00000390: f566 073d 36bd 1a3d 6030 6fbd 89d2 06be
000003a0: 3889 e4bd a51c 8dbd 2641 94bd 5b94 1abd
000003b0: 1c88 0a3e 90ad 343e 7b17 983d 1a2d f4bc
000003c0: 95a6 b63c b7c5 293d 6088 15bb edcc cc3d
000003d0: 7990 35bc ebd1 643d 8dec e83c 906c afbd
000003e0: 8e09 bfbd 3d91 36bd 59a8 51bd 4ddd 28bd
000003f0: ee51 a03d 1a0b e7bb 36a7 1abe 817b b7bb
0.07351052 0.104179 0.09091993 0.14976755 -0.0013474342 0.052670803 0.06608607 0.11080173
0.083886646 0.005791916 0.005984716 0.09819432 0.11851286 0.0016056993 -0.055544455 0.03790689
-0.056187544 -0.012190938 -0.023946397 -0.052522544 0.005215952 -0.13363789 -0.20320092 -0.12724997
-0.046237342 0.03982189 0.060754925 0.08678507 0.007838234 -0.024804644 -0.039650466 0.070065066
-0.018770097 -0.09171518 0.093198486 -0.12168368 -0.097342305 -0.1052001 -0.22644424 -0.20909835
0.089590445 0.08596395 0.17235973 0.13758132 0.066840224 0.0408427 0.11251824 0.14872612
0.07304023 -0.014234952 0.10583549 -0.00026731822 0.13752726 -0.009915857 0.002394684 0.06777478
0.12943842 0.08998099 0.041594405 0.04093125 0.02187293 -0.070953466 -0.055185623 -0.084040366
-0.019272344 -0.0745566 -0.13220887 -0.11531642 -0.15439154 -0.0781846 0.015561319 -0.0010640346
0.017575184 -0.06933156 -0.015394223 0.013332077 0.07109006 0.1278251 0.023336539 0.035184484
-0.08512444 -0.03510055 -0.1106253 -0.034488104 0.06475737 -0.17789456 -0.11192937 -0.1471066
-0.14626296 0.0077881464 -0.0024275098 0.0769694 0.038245387 0.09652238 0.035305507 0.16679843
0.10133649 0.09500452 0.098143235 0.1305633 -0.03613583 0.05748666 -0.016477713 -0.11026482
-0.03041677 -0.28739026 -0.21368407 -0.15317307 -0.34025607 -0.3274848 -0.02611318 0.02045512
-0.054935627 0.014115057 -0.15304108 0.17140408 0.17966469 0.08653794 0.2296025 0.07853422
0.1372828 0.046169396 -0.0121735325 -0.061170857 -0.031398922 -0.06138439 -0.02436175 0.11862545
-0.005201761 0.07877831 -0.084315106 -0.13665335 -0.18251365 -0.13747787 -0.116659604 -0.0005529645
-0.1530721 -0.17753616 -0.09419837 -0.111975975 0.08761524 0.14109297 0.059922613 0.0019690278
0.07376812 0.1301273 0.022052335 0.0813708 -0.005971267 0.14428276 -0.085002646 0.12988672
0.23119813 0.12659375 0.11862494 -0.064792186 -0.036185227 -0.14264788 -0.032692883 -0.14200787
0.07065239 0.11912005 0.24118376 0.09046101 0.066110484 -0.06414391 -0.056391504 0.053849146
0.12525359 -0.19455664 0.019871488 0.047888122 -0.04292989 0.020721208 0.036120582 0.0574334
0.008519445 0.16196647 0.13121563 0.04429209 -0.09989658 -0.041299127 -0.041626416 -0.0750468
-0.084652685 0.024703883 -0.10069843 -0.12809004 0.031258233 -0.08369244 0.16673525 0.46361586
0.6030507 0.30525947 0.13594003 -0.16802534 -0.2525198 -0.19652283 -0.16582109 -0.03488115
0.045262713 0.057473283 -0.06782912 -0.0016623177 0.003766536 -0.007813386 0.08886957 0.055560302
-0.04569411 0.0077358037 -0.09412396 -0.063279025 -0.2561436 -0.20812887 -0.010660809 -0.0009880528
0.07255535 -0.11620856 0.019689921 0.04346972 -0.052900624 -0.020641461 -0.05395594 -0.08327712
-0.10626979 0.11107154 0.14030963 0.22643211 0.03305717 0.0377781 -0.058395743 -0.1316625
-0.11158985 -0.06890229 -0.072389886 -0.03773914 0.13528484 0.17644334 0.074263535 -0.029806662
0.02229623 0.04144832 -0.0022816882 0.10000024 -0.011081808 0.055864256 0.028433109 -0.085656285
-0.09327994 -0.044572104 -0.05118594 -0.041226674 0.07828127 -0.007050884 -0.15102848 -0.0055994396

conv2.bias f4 [16]
00000000: 7129 07bd b442 e23c d589 c63b 0037 9fbc
00000010: 31fb 473d e294 4cbc 8552 99bc ab66 d2bd
00000020: 2dd1 693d 7e1d 2bbb 0773 413d 7669 013d
00000030: 4784 03be 01d6 4abd 0202 5b3c 9a25 8cbd
-0.032998506 0.027619697 0.0060589113 -0.019435406 0.04882354 -0.012486668 -0.018716106 -0.102734886
0.05708425 -0.0026110108 0.04722884 0.031594716 -0.12843429 -0.049520496 0.013367178 -0.068431094

fc1.weight f4 [120, 400]
00000000: 1fa8 da3c 8fd2 a0bb a8f3 183b 1169 1ebd
00000010: d028 9fbc 6e3f 993b 076c dd3a bf20 ad3c
00000020: 9ad5 82bd 7912 6fbd 4ac3 d9bc 1b2e 85bd
00000030: 5ea4 10bd a802 c0bc 3e2f a53c 1762 4dbd
00000040: d34c a6bd dac9 1f3d c110 c2bb ddf5 a03c
00000050: 8ad9 7bbd b7ea 0ebc 265c 5b3c 4074 3e3c
00000060: 464b 6cbc 9233 b03d 0145 273c b351 803d
00000070: 6062 ef3c c6d9 af3c d8ed b1bc 951e b63d
00000080: 2e46 bc3b 28c5 ed3c 51c3 0f3d 6c60 8bbd
00000090: 589d 0a3d 4730 82bb 7b1e ab3b 2d8e d5bc
000000a0: 368c fbbb 4b5c fabb 6422 b43c 5e95 34bd
000000b0: 0d7f 6cbd a050 a1bd e566 62bd af8d e9bd
000000c0: e1a7 fc3c 77dd 0cbd 078f 183c 531f 253d
000000d0: 98b6 82bc 5db2 02bc a520 74bd af43 d1bc
000000e0: 7221 e23d ba9f db3c 6e5e 5dbd 7ef8 1b3d
000000f0: e64d 8abd 7320 dbbc 2547 5f3c cef4 79bd
00000100: d538 033b 869a 17bd d70a f53d 5b5c 053d
00000110: 0766 8a3d 5c80 03bd d989 b7bc b10c 2fbc
00000120: 8713 6c3d 5a97 32bd 1bb2 e4bd 01d5 353d
00000130: 4fd5 fc3c 4070 55bd e179 473d 7a99 99bb
00000140: 3859 163c 0f73 a33d a493 1a3d 8d35 d83c
00000150: e9c2 8b3d d3e8 e4bb ccb2 2ebd 8f01 acbc
00000160: 14dc a63d 4238 043d 89b7 87bd d53c 05be
00000170: 7035 96bd 7709 3f3c 2366 853c 9be7 a7bd
00000180: 43d6 dfbd bf99 6abe 001f 893d cc93 993d
00000190: 896b f3bd ca21 ecbd ee09 81bd ca41 11bd
000001a0: dcae 0dbd 7cd5 9e3d 96af fb3a 3c40 b9bc
000001b0: dcb6 923c 9c4c ab3c 2cc7 213d 81db c4bb
000001c0: a45e 0b3d fc4a d93d a195 8f3d 74b6 09bd
000001d0: 1697 1ebe 5854 ffbd fd77 013e 739d 503d
000001e0: 1b18 60bd 0b7c 18be 3530 eb3c 9ee9 f43d
000001f0: f7de 4b3d 7e57 303c 0959 9c3b 27bf a33c
00000200: c07f c43b 41a6 213c 4231 c8bc 106b 55bd
00000210: fcc0 90bc fb06 92bb 8af4 7dbc 8559 4fbd
00000220: 556a 8cbd 94df a4bd 1821 85bd e915 1c3d
00000230: 2513 19bd 1320 d8bc 23bf a33c d74b e03a
00000240: 19a8 473d c949 08bd 4f27 0a3d d51f 82bd
00000250: 6544 a1bc ac04 1fbd 5a47 9a3d 8956 953c
00000260: 3d17 0a3d fb4d cbbc 40c7 233c dbda 32bc
00000270: b248 80bc 9572 91bd eb82 033c 5ec2 da3b
00000280: 7576 28bd 2d2f 92bd c019 973a 741d 3ebc
00000290: 91a3 0e3d 86d0 5ebd d17b 86bc c09f c5bc
000002a0: f960 81bd 2c65 e0bc 45b7 c6bd 3aa0 cdbd
000002b0: 542e 8b3b 6287 853d e8f9 b73d b891 5bbd
000002c0: 3093 c0bc b129 9fbd dfe6 6c3a d4b7 b5bb
000002d0: 7302 463c 579f 1abd 5361 703d c419 de3c
000002e0: 1298 023d 285d 70bd 7c39 2a3c 401c 6d3d
000002f0: e7c0 bd3d b55a d13c e4ac 66bd b64e 36bd
00000300: 9c84 4a3d 5f46 cf3d ae6a cf3d 0d45 dfbc
00000310: 476e b6bd f9c2 09bc 47df be3b 6ce5 cf3d
00000320: d182 26bd d358 28bd 68f2 5fbc 50bf e3bc
00000330: b99a 583d 637c 2dbb c796 9ebc 6ab0 a03c
00000340: 1b36 5bbc 7c6a 4abc c769 6d3d 2b67 bc3c
00000350: 6c35 95bc 1b89 f03c 486c 993c 136b d6b9
00000360: 1857 a5bc bcff 5b3d 313c 9d3c c254 d1bc
00000370: d918 2bbd f088 56bd f492 4d3d 65e9 593c
00000380: fe5b bd3c c5eb 103d bf3b 013e d86a c23d
00000390: 686d b83d 6a74 a63c 2e43 fc3d a71d e13d
000003a0: 89c7 8d3c 070a 05bc 816d a43c 5c0d 1f3d
000003b0: 5e21 e8bd 603b 65bd 6249 e1bc a338 cfbd
000003c0: caa7 2ebd 0a29 cfbd a8eb 4ebe ef2d e3bc
000003d0: 2cae b8bd 1727 afbd 32aa 6dbe 7af1 70be
000003e0: 19f4 39bb 3ba4 c43d abcf 3abd fecb 8ebd
000003f0: ff88 f43a 041d 763b b749 cabc dbfb b5bc
0.026691495 -0.004907913 0.002333859 -0.038674418 -0.01942864 0.004676751 0.0016893157 0.021133779
-0.063883975 -0.058367226 -0.026582379 -0.065029345 -0.035313003 -0.023438767 0.020164128 -0.050142374
-0.08120122 0.03901086 -0.0059224074 0.019648487 -0.06148676 -0.008722953 0.013388669 0.011624396
-0.014422243 0.08603586 0.010209323 0.06265583 0.029221714 0.021466147 -0.021719858 0.08892552
0.0057456708 0.029024675 0.035098378 -0.068055004 0.03384146 -0.0039730403 0.0052221394 -0.026068771
-0.0076766266 -0.0076403967 0.021989055 -0.04408776 -0.057738353 -0.07876706 -0.05527391 -0.11403977
0.03084177 -0.034390893 0.009311444 0.040313076 -0.015956208 -0.007977095 -0.059601445 -0.02554497
0.110415354 0.026809562 -0.054045133 0.038078777 -0.06753139 -0.026748871 0.013627802 -0.06102448
0.0020022888 -0.0370126 0.11964958 0.03255878 0.067577414 -0.032104835 -0.022404598 -0.010684178
0.05763581 -0.04360137 -0.111667834 0.04439259 0.030863432 -0.052109003 0.048700217 -0.0046874853
0.009176545 0.0798093 0.037738457 0.026392723 0.068242855 -0.0069857626 -0.042650983 -0.020996837
0.08147445 0.032280214 -0.066268034 -0.13011487 -0.07334411 0.011659971 0.016284054 -0.08198472
-0.10929539 -0.22910212 0.06695366 0.07498893 -0.11885745 -0.11529882 -0.06300722 -0.035463132
-0.034590587 0.07755563 0.0019202109 -0.022613637 0.01790946 0.020910554 0.039496586 -0.006007612
0.034025803 0.10610005 0.07010961 -0.033621266 -0.15487322 -0.12467259 0.12643428 0.050931405
-0.05471049 -0.14891069 0.02870951 0.119586214 0.049773183 0.010763047 0.004771356 0.01998861
0.0059966743 0.009866298 -0.02443755 -0.052104056 -0.017670147 -0.0044563985 -0.015500197 -0.05062248
-0.06856219 -0.08050457 -0.06500453 0.038106833 -0.037371773 -0.026382482 0.019988602 0.0017112446
0.048744295 -0.033273492 0.033728894 -0.06353728 -0.019685933 -0.038822815 0.075331405 0.01822974
0.033713568 -0.024817457 0.009996235 -0.010916437 -0.015659664 -0.07101933 0.008026819 0.0066760024
-0.041128594 -0.07137904 0.001152806 -0.011603702 0.034823958 -0.054398082 -0.016416462 -0.024124026
-0.06317324 -0.027391993 -0.09702925 -0.100403264 0.004247466 0.06519963 0.08983213 -0.053605765
-0.023507684 -0.07771624 0.0009037088 -0.0055455957 0.012085545 -0.037749615 0.058686566 0.027111895
0.031883307 -0.05868259 0.010389682 0.05788827 0.09265309 0.025555948 -0.056317225 -0.04450866
0.049442872 0.10120844 0.101277694 -0.027254606 -0.089077525 -0.0084083015 0.0058249566 0.101511806
-0.0406521 -0.041100334 -0.013668634 -0.027801186 0.05288193 -0.0026471845 -0.019359006 0.01961537
-0.013379599 -0.012354489 0.057962205 0.022998413 -0.01821395 0.029362252 0.01872839 -0.00040897037
-0.020183131 0.053710684 0.01919374 -0.025553111 -0.041771743 -0.052376688 0.050188974 0.0133002745
0.023115154 0.035381097 0.12620448 0.09493035 0.090052426 0.020319182 0.12317501 0.10991984
0.01730706 -0.0081200665 0.020071747 0.0388311 -0.11334489 -0.055964828 -0.027500812 -0.101182245
-0.042640485 -0.101152495 -0.20207083 -0.027731864 -0.09017596 -0.08552378 -0.23209456 -0.23529616
-0.0028374253 0.09601637 -0.045608204 -0.06972502 0.0018656551 0.0037553916 -0.024693353 -0.02221482

fc1.bias f4 [120]
00000000: f533 d23c 1e2f 22bd 1627 5dbc 373c db3b
00000010: d873 8abc f5e7 bebc 697e e23c 264c e73c
00000020: 1086 16bd e8dd 5b3d 927a 453c 7d84 53bd
00000030: d09a 1a3b af25 6bbc 0f39 883d 798a 223b
00000040: 4d32 3cbd 4c9d 2a3d b785 37bd 0a7a fb3c
00000050: c2a2 653c ee1d 9cbc a2fd 703c 7230 823c
00000060: 0177 09bd 4abb f7bc 95c1 653d 9396 1fbb
00000070: 2664 adbc 9039 1a3d 4815 17bd 5097 a8ba
00000080: 5e71 febb 1414 1ebc 01b4 943b 10b8 38bd
00000090: 67c8 bf3c 6e5f 203d dae8 f7bb 45de 5d3c
000000a0: eeef 833c a9f3 a03c e9d3 f0bc b389 16bd
000000b0: c572 83bc 2035 023c 48c6 373d db49 a83c
000000c0: 05c5 bebc 8dc3 0d3c f78a 813c 84fb f7bc
000000d0: 6853 113c 3cc2 ef3c 5419 a73a 3bf2 1e3d
000000e0: 6bf2 39bc 8462 9dbc 2377 bd3c fe78 cf3b
000000f0: 3344 763c 82a6 4dbd baa0 1b3d 5b5f c8bc
00000100: 12d4 343d 7657 9d3d 2071 413d 64e2 0b3c
00000110: d575 503d d33d 333c 0cac 423d 04f8 293d
00000120: 3a1d 2d3c d870 3abc f0dd d23c e68b 653d
00000130: 5d68 003d a55f e5bc 0153 be3c 2c71 f6bc
00000140: 8117 65bc a7c0 ef3c 202a 8e3c 236a b7bc
00000150: c801 7e3c f5c0 7fbc 4796 54bd ec93 05bd
00000160: c7c4 6b3b acaf 35bc ad79 b13c 07b7 323d
00000170: 5950 f03c 8cc6 37bc c1a2 563d 662d 083d
00000180: 44fa ed39 4073 ed3b 7028 9e39 5765 a93c
00000190: 96e0 eebc 2d02 803c fad6 b6bc a729 4c3d
000001a0: 7790 0bbd 29e9 07bd 2e34 8ebc e49e 4e3d
000001b0: 3f24 6b3d 9465 713c 07fc 11bd 2b61 ae3c
000001c0: 93a5 07bd 17ca afbc 1c80 333d ff05 8abc
000001d0: 17dd 0fbd 03d4 c0bc 0856 4c3d 3f01 233d
0.02565954 -0.039595716 -0.013498088 0.006690528 -0.016900942 -0.023303965 0.027648168 0.028234553
-0.036748946 0.053678423 0.012053149 -0.051640023 0.002359081 -0.014352246 0.06651508 0.0024801774
-0.045946408 0.041653916 -0.044805255 0.030697841 0.014015855 -0.01905724 0.014708908 0.015892241
-0.033560757 -0.030240674 0.056092817 -0.0024351224 -0.021165919 0.037652552 -0.03688553 -0.0012862477
-0.0077649793 -0.009648342 0.0045380597 -0.04509741 0.023410989 0.03915351 -0.0075656 0.013541763
0.016105618 0.019647436 -0.029397922 -0.036752414 -0.016045937 0.007947236 0.04486683 0.02054303
-0.023287306 0.00865258 0.015813334 -0.0302713 0.008869983 0.029267423 0.0012748637 0.038805228
-0.011349301 -0.019212015 0.023128098 0.006331562 0.015030908 -0.050207622 0.037995078 -0.024459532
0.04414756 0.076826975 0.047227025 0.008537862 0.050893623 0.010940033 0.047527358 0.04149629
0.01056605 -0.011379443 0.025740594 0.05604162 0.03134953 -0.027999708 0.023232939 -0.030083261
-0.013982655 0.029266668 0.017354071 -0.022389477 0.015503354 -0.015609969 -0.05190113 -0.032611772
0.0035975443 -0.011089247 0.021664465 0.04363158 0.029335188 -0.011216771 0.052401308 0.03324642
0.00045390625 0.007246405 0.00030166237 0.020678205 -0.029159825 0.015626037 -0.022319306 0.04984441
-0.03407332 -0.033181343 -0.017358866 0.0504445 0.057407614 0.014733691 -0.035640743 0.021286568
-0.03311689 -0.021458669 0.043823346 -0.016848562 -0.035122957 -0.023538595 0.049886733 0.03979611

fc2.weight f4 [84, 120]
00000000: d91c 8ebd f31f 2cbe 7597 27be 1e05 2bbd
00000010: 69a6 9b3d c668 dc3b ea5f 98bd 581a 10be
00000020: fd37 10be b827 ee3d 8691 a03d 603a 123c
00000030: 2d85 95bd 5f67 d5bd 4d2e 1cbd 89d9 81bd
00000040: 9133 0f3e 9b0a fb3d e491 8dbc 3381 febb
00000050: 8fbd 823d baf5 9f3d 0194 1bbd 0ff3 f6bc
00000060: b369 a43d a276 5abc 58b3 0c3e 7caf 9f3d
00000070: cd29 5abd 5a4a 60bd 1166 8abd 19bc 59bc
00000080: db91 7ebd d916 05be 4c65 c4bc faeb 27bd
00000090: 7f04 073d 063c 873d e811 f7bd b27c 47bd
000000a0: 65ad b73c 2d06 ff3d 46ce 163a 9d83 d53d
000000b0: 6124 6f3e b2e1 ff3b 0aa5 29be c306 cd3d
000000c0: 9ae3 e93d 068f 91bc abf0 8f3d d714 c83c
000000d0: 4544 0b3c 4b3b 34bd d563 9d3d 3bf2 84bd
000000e0: 830e 053d b75a ab3d fc55 f93c 8bdf 63bd
000000f0: 7e80 53bc f93f 783a bba6 78bd d4dd 9a3d
00000100: 4d78 0fbe 2b38 e53d 53b2 ba3d 533e adbd
00000110: 395f a6bd e5e3 74bd fc0f aebd 5706 283e
00000120: 254b b3bc 5c47 eabc a1fc 12bd f055 db3d
00000130: 8e74 dfbd e0f2 5fbe e2d6 b63d a9ec 23be
00000140: 73d8 953d 81ce c73d 0009 3ebd 29d2 c93d
00000150: 1f1f d23c c114 cbbd 0c2a bfbc c216 e13d
00000160: 3154 62bd 9a6a efbd ae16 6dbd 6fed 88bd
00000170: de3b be3d d693 8c3d 5253 353e f1a1 73bd
00000180: d7d5 2cbd 8491 9dbd 30be cebc 4c1c 80bb
00000190: fad0 e23c a45a f9bc 53eb 063d 0657 f0ba
000001a0: 719e 623c 0814 f93b f387 473e db6b 583e
000001b0: 27c6 623e 4141 813d b360 e43a 52d3 f23a
000001c0: ce21 bcbc 5e6f ee3d 3a54 d63c 72a1 053c
000001d0: bb92 403d 72bb 793c d65d 99bd ac2c 9fbb
000001e0: d051 dcbd e3fb e33c 2680 713c f07b 90bd
000001f0: 380c 19bd 4167 0b3c c217 31bd 93cf c8bd
00000200: 30c5 32bc 1030 7d3e a562 ad3c cfc9 7abd
00000210: 30b4 df3d 35c6 193c b457 243e fbb7 d43d
00000220: aa57 bdbd 33ed 2b3c 71f3 523e 1ff9 babc
00000230: f8c1 193e 237d 11bd 4edb 293d c8a0 f9bc
00000240: d537 06be 8090 bfbc 24a9 18bd a0ba f8bc
00000250: afe5 4abc 7eee 65bd f636 c5bd 6f37 703c
00000260: 1c62 63bd 6a0f c5bd da8f 2cbe a469 4cbd
00000270: 60e0 8cbc 273f 11be 42e1 973d 3b7a 46be
00000280: 2ef6 00be 1f64 9b3d 8914 8e3d 017a f23d
00000290: 563a ef3d 58dd ac3c e7a5 10bd 89c3 02bd
000002a0: e40a 1b3e 5a82 0fbe f22c 813c 9df6 bdbd
000002b0: d893 6b3d e59a bdbd 29e6 9d3d 5a33 19bd
000002c0: 7d88 37be 3aa2 c33d b9b3 26be cf60 c7bd
000002d0: cad3 dabd dbe3 053d e184 edbd be82 043c
000002e0: f4e5 61bc 6e35 94bd 0e25 a33d 792f 2dbe
000002f0: 8191 0d3a 4790 b4bd 9c26 61bc 498a 1dbd
00000300: 279f b73d 030d 62bd ccdf e1bc b2fb 293d
00000310: 204f bebc 4513 353d a1cc 643e b585 11be
00000320: 3abd 283e 90a8 e8bc 7160 2abe 5a86 673d
00000330: cbe8 023e 3d21 4d3c 0454 febd b4d4 c33c
00000340: bced ab3d 05a4 f5bd bc70 9abd bb39 583d
00000350: 7f23 093e cdea e43d 6aa2 d3bd d6aa 263e
00000360: 2696 13bd a8b5 7dbd 9261 a33d 5a73 443d
00000370: 358d 4d3d d089 09bd 5ee2 133e 61aa cf3c
00000380: 23ba f03c 7d73 e33d a65c 2c3d a226 903d
00000390: 9a7a dc3a 7611 55bc 2e8a 25be 6b0a 313e
000003a0: a136 093e c0e9 db3d 0cf7 383e 6935 82bc
000003b0: 3883 4f3c e1eb 2fbb 1471 fcbd 029a 063c
000003c0: 7cfa 203e 6d63 15be ce99 093c a69e cb3c
000003d0: db47 4c3d a668 a13d bfd7 573d 4ba6 a33d
000003e0: 15f3 11be 5a2b 313d e825 4cbd 390c dfbb
000003f0: 33d0 0c3d 0c12 cb3c b6c5 f03d 82fc f9bd
-0.06939096 -0.16809063 -0.1636637 -0.041752927 0.076000996 0.006726357 -0.07440169 -0.1407255
-0.14083858 0.116286695 0.078402564 0.0089250505 -0.07300792 -0.10420107 -0.038130093 -0.0634032
0.13984515 0.12257882 -0.01728148 -0.0077668666 0.06383812 0.078105405 -0.037982944 -0.030145196
0.08027973 -0.013333948 0.13740289 0.07797143 -0.05326252 -0.054758407 -0.06757749 -0.013289475
-0.062150817 -0.12996997 -0.023974083 -0.04099653 0.032963272 0.066032454 -0.12063962 -0.048702903
0.022421548 0.1245235 0.0005752783 0.10425494 0.23353721 0.0078088874 -0.16566864 0.10011055
0.11420365 -0.017768394 0.07028326 0.024424 0.008500163 -0.04400186 0.07685057 -0.06491514
0.032484543 0.08366912 0.030436508 -0.05563311 -0.012909053 0.0009469982 -0.06070588 0.075618416
-0.14010735 0.11192354 0.09116044 -0.08459153 -0.08123631 -0.05978765 -0.084991425 0.16408668
-0.021886418 -0.02859848 -0.035885457 0.10709751 -0.10910903 -0.21869993 0.089277044 -0.16008247
0.07316675 0.09756184 -0.0463953 0.09854538 0.025649605 -0.09916068 -0.02333548 0.10990669
-0.055256072 -0.116902545 -0.057882957 -0.06685912 0.092887625 0.06864135 0.17707565 -0.05948061
-0.04219612 -0.076937705 -0.025237173 -0.0039096233 0.027687538 -0.030438729 0.032939266 -0.0018336482
0.013831721 0.007601265 0.19485454 0.21134894 0.22145902 0.06311274 0.0017423838 0.0018526113
-0.022965338 0.11642335 0.02616321 0.008156167 0.047014933 0.015242444 -0.07488601 -0.00485762
-0.10757792 0.02783007 0.014740026 -0.07054889 -0.03736517 0.008508504 -0.043235548 -0.09805217
-0.010911271 0.24725366 0.021165201 -0.061227616 0.1092304 0.009385635 0.16049081 0.10386654
-0.09245236 0.010493564 0.20600678 -0.022823868 0.150154 -0.03551973 0.04146891 -0.030472174
-0.13107236 -0.023384333 -0.03727068 -0.030362427 -0.012383862 -0.056135647 -0.096296236 0.014661654
-0.055513486 -0.096220806 -0.1685175 -0.049905434 -0.017196834 -0.14184247 0.074160114 -0.19382565
-0.1259391 0.07587456 0.069375105 0.11839677 0.116810486 0.021101639 -0.035314467 -0.031924758
0.15140873 -0.14014569 0.015768502 -0.092755534 0.05751404 -0.092580594 0.07709915 -0.03740249
-0.1792316 0.09552427 -0.16279496 -0.09735262 -0.10684927 0.032688003 -0.1159761 0.008087812
-0.013787735 -0.072367534 0.07966052 -0.1691264 0.0005400405 -0.08816581 -0.013742115 -0.038461957
0.08965903 -0.05518819 -0.027572535 0.0414998 -0.02323109 0.04420783 0.22343685 -0.14211161
0.16478434 -0.02840069 -0.16638352 0.056524612 0.12784116 0.012520132 -0.124183685 0.023905136
0.083949536 -0.11994175 -0.075410336 0.05278943 0.13392447 0.11177597 -0.103337124 0.16276106
-0.036031865 -0.06194082 0.079775944 0.04796157 0.050183494 -0.033578694 0.14441821 0.025349798
0.029385632 0.11106012 0.042080544 0.070386186 0.0016821206 -0.013004651 -0.16165993 0.1728913
0.13399746 0.10737944 0.18062991 -0.015894609 0.012665562 -0.0026843476 -0.123262554 0.008215429
0.15720552 -0.14588709 0.008398486 0.024855923 0.049873214 0.07881288 0.052695986 0.07990702
-0.14252885 0.043254234 -0.049840838 -0.006806877 0.03437824 0.024788879 0.1175646 -0.12206365

fc2.bias f4 [84]
00000000: 49a4 803c 927d 9fbd beff 3f3d a6df f13c
00000010: 0ad5 a6bd 911a e0bd 756a 16bd 3998 a13b
00000020: 9207 7d3d ef7e 913c 9852 30bd 48da 06bd
00000030: aab4 eebc 9095 cdbd 927e 883d 2f3a c03d
00000040: 3eaf 74bc 927b acbd 2f09 b5bd 872f 933d
00000050: c6a0 bcbb fffb 27bb 5c5a 24bd 65bb 8e3d
00000060: 31ff 2abd bc57 89bb 99c3 8cbd d159 00bd
00000070: 0e3f 9ebd 2787 1f3d ea99 b2bd 07fc aa3d
00000080: 6704 763d e6fb aebd 85db a53d 7b61 03bd
00000090: de82 7c3d 73d3 ad3d f0c1 64bc 00ef 5dbc
000000a0: 20f0 d9bd 7f5f d9bb 8cd1 dc3c f5e1 96bd
000000b0: 1375 983c c726 3cbd 816f b7bd 9314 883d
000000c0: 04df ce3d 2582 66bd 7c0d 513c ee7c cd3c
000000d0: 9157 6fbb 4744 96bc 8b3c babd 4fba 16bd
000000e0: 4baa a5bd 0fa9 93bd 6837 fa3d a7f9 5fbd
000000f0: 3ab1 813c 094c 2cbd 1f7f a43c 0f7f d23c
00000100: 1446 303d 7549 9bbd 67e6 8bbb 7721 b5bb
00000110: 2ce4 8cbd 0654 bc3d c94c 49bd f05e a6bd
00000120: 8b9b 933d 9404 c1ba 1e6a 8f3d db37 133d
00000130: 8e00 5cbd 361b 00bc a118 32bd 8e7c cfba
00000140: b8eb c73d 286f 79bc e591 573d 61ce 1abd
0.015703337 -0.077876225 0.046874754 0.02952559 -0.08146103 -0.10942567 -0.03672262 0.0049314764
0.061774798 0.017760722 -0.043047518 -0.032923013 -0.029138882 -0.100382924 0.06664766 0.09386098
-0.014934359 -0.08422007 -0.08839642 0.071867995 -0.0057564704 -0.002563238 -0.040125236 0.069693364
-0.041747276 -0.004191367 -0.06873245 -0.031335656 -0.077268705 0.03894725 -0.08720763 0.08348852
0.060062792 -0.085441396 0.08098511 -0.032075386 0.061648242 0.08487596 -0.013962254 -0.013545752
-0.10641503 -0.0066336985 0.026955388 -0.07367317 0.018610513 -0.04593542 -0.089568146 0.06644549
0.101011306 -0.05627646 0.012759563 0.025083985 -0.00365207 -0.018343104 -0.09093579 -0.03679877
-0.080891214 -0.0720998 0.12217599 -0.054681446 0.015831579 -0.0420647 0.020080147 0.025695352
0.04303558 -0.0758237 -0.0042694095 -0.005527671 -0.06879458 0.09195714 -0.049145494 -0.08123577
0.07207402 -0.0014726096 0.07002662 0.03594194 -0.053711466 -0.007818988 -0.04348052 -0.0015829967
0.09761757 -0.015224256 0.05262937 -0.037794475

fc3.weight f4 [26, 84]
00000000: f125 ca3b 7cde d63d 9223 dbbd 2bea 5fbd
00000010: 2a73 24be 89b9 f1bd f9d0 d83d 53b5 5ebe
00000020: 45ff 48be 6607 803d f25a 613d 1982 073d
00000030: 39f1 d2bd f141 ebbd 98f5 91be 7c41 6c3d
00000040: 4817 d63d ea28 ef3d d993 49bd ad1a 6abc
00000050: 7e60 a43c 5ce7 2b3e ca16 7b3c 76a7 34be
00000060: 94a7 cdbd b611 b3bd 392b b63c 811b a5bd
00000070: 6bea 56be 5703 5bbe 07ed 8bbd 8f94 0e3e
00000080: 2f70 583e 3611 913d 98e3 3abc 1150 0c3e
00000090: 649c 6dbd 8f4c 313e 3833 58bd 6c96 e13c
000000a0: e736 5a3d 9c8b 303d 0b14 2abe 244a 98bd
000000b0: 09e8 b2bc 9e0e 8bbd bacc d33d 13cd a4be
000000c0: 7fbb 1bbd 0f57 62be 3f43 903e 000e d1bd
000000d0: d22b 2e3e 6405 e2bd c776 1fbe b4f6 c4be
000000e0: 76e1 8a3d 3839 ddbd ab67 71be 2fdf 9e3e
000000f0: 4628 b03e f24c 91bd 16ec 7fbc e2b6 f23d
00000100: e71e fabd c839 dfbc 44d1 25be 5b57 fabd
00000110: 8303 d6bd e4a6 0ebe ccaa 6b3e 726d 4dbe
00000120: 7974 973d cdc9 20be cd53 34be 66be 163e
00000130: c404 e53c 32df 14be 4529 443e 43b6 1b3e
00000140: 67a6 d5ba 93d7 c93e 83ce 7abe be59 023e
00000150: 60dd 8a3d 29e2 853e f0cf c8bd c43e 003e
00000160: 692d 113e bb1c 473e 511a 15bd 82f3 fc3c
00000170: 7031 80bd e1d8 1a3e ec18 1ebd 4505 c6bc
00000180: e55e 35bd 4f5e a7bd aa81 fa3d 8f8f 7bbe
00000190: 5093 f1bc 1453 59bd ab74 4abd 3161 93bc
000001a0: 46a9 6e3e 4a3c 973d 1e59 a6be 8d78 2a3d
000001b0: 9a53 1c3d 5b99 53bd 04cd 473d 25df e23c
000001c0: 24f3 7fbd 326f 1ebe a209 b4bd 28e1 d9bc
000001d0: c2cd 19bd 02a7 593d 3cd0 4a3d b2bb 283d
000001e0: 52d7 4cbe 9f9f 993e 9eaa b6bd 5ade 883e
000001f0: fc0e 76bd 9e61 483e a869 b83d 69c0 febd
00000200: ba11 823d cecf 1dbe 843f 6abe cf15 313e
00000210: ba08 22bd 773b 623e 82ff 373e 78ea 4bbd
00000220: 8682 3abc bfbc 2fbd 09d8 823d d181 febd
00000230: 56b3 bc3c 4778 8ebe 2a1b 2b3e c209 d0bd
00000240: 621b 59be 3785 63bd 0955 b33d 8fa5 b0bc
00000250: 1d00 40be a0fc d8bc 5ee4 90bd f537 05be
00000260: 0c18 08bd 421e 493e 38bf 4dbe 2fb2 afbd
00000270: fd63 f73b bf31 883d 19b0 20bc d7f6 44bd
00000280: 639b 03bc edbd a0bd 0d6b b03d 4603 56be
00000290: 7a90 4dbd 5647 223e 71d1 1abe f127 49be
000002a0: 589d 7abd 3ad5 123e 03d9 11be 8b97 93bd
000002b0: eb97 2a3e b9f7 c03d b1f5 b3bd 3b96 fc3b
000002c0: 2568 8c3e ccdf 45be ee46 6ebd c1b7 063e
000002d0: 26ac 683e c1fb 4d3d 7630 003d 1560 35be
000002e0: fd9f 17be 5066 46bd cc1f e03d 09bc a43e
000002f0: 40da d5bd aef1 46be 5c07 c9bc 011d b03d
00000300: cb34 373e 1ab5 543a f0fe 4bbc 4200 d7bd
00000310: 186d 2c3e cc12 aabd b1e9 9d3d 2579 5fbd
00000320: 72bb 90bd c13a d2bd 08ca 6f3d 1993 15be
00000330: 2a59 0cbe 4c90 3dbe 5edd 78bc 6d85 093e
00000340: a9e5 653e 6169 993e 5c63 583e 9235 203e
00000350: 2b24 963d dae8 5f3c 1f4e 0a3e 6cfd 9bbd
00000360: cb26 9dbd bf13 8a3b 53da 343e fe15 e03d
00000370: 5cd6 dbbd 6eeb 363e b3ca 44bd a945 0c3e
00000380: 148b 723d c142 4e3e f996 9b3d a838 7b3d
00000390: 8350 9d3c f74a fc3a 7a20 063c 0345 f1bd
000003a0: 2193 d53d 8e79 ab3d 51f6 94bd 1ad3 3e3d
000003b0: bae2 6fbd f7db 00be b7ad 8cbc cebf d93d
000003c0: 2bd7 f5bd 9acb 873e 33d2 edbd 668d 0fbe
000003d0: 8a6e 513d 66b4 21bd a025 1f3e 3197 5ebd
000003e0: 9695 a43d 3139 653c e301 643e 18eb ab3c
000003f0: 9368 983c fb27 803e ed40 d63e 1e54 3e3e
0.0061690737 0.10491654 -0.10700144 -0.05466668 -0.16059557 -0.11802966 0.10586733 -0.21748857
-0.19628628 0.06251411 0.055018373 0.033083055 -0.10299916 -0.11487187 -0.28507686 0.05767964
0.10453659 0.116777256 -0.049213264 -0.014288587 0.020065542 0.16787475 0.015325258 -0.17642006
-0.100417286 -0.087436125 0.022237407 -0.080618866 -0.20987861 -0.21387993 -0.06832319 0.13923858
0.21136545 0.07083361 -0.011406802 0.13702418 -0.058010474 0.17314361 -0.05278322 0.027537547
0.053275015 0.043101892 -0.16609208 -0.07436016 -0.021839159 -0.067898974 0.10341783 -0.3218771
-0.038020607 -0.22103523 0.28176305 -0.102077484 0.17008904 -0.110361844 -0.15572654 -0.3846947
0.067812845 -0.10801929 -0.23574702 0.3102965 0.34405726 -0.07094754 -0.015620252 0.118512884
-0.122129254 -0.027249232 -0.1619311 -0.12223693 -0.104498886 -0.13930851 0.23014373 -0.20061281
0.07395262 -0.15701981 -0.17610092 0.14721069 0.027956374 -0.14538267 0.19156368 0.15206246
-0.0016300202 0.39422283 -0.2449284 0.12729546 0.06780505 0.2614911 -0.09805286 0.12523943
0.14177479 0.19444554 -0.03640205 0.030877832 -0.062594295 0.15121795 -0.038597986 -0.024172435
-0.04427995 -0.08172285 0.12231763 -0.24566482 -0.02948919 -0.053057745 -0.04942767 -0.01799068
0.2330676 0.07384546 -0.32489866 0.041618872 0.038165666 -0.051659923 0.048779503 0.027694294
-0.062487736 -0.15472105 -0.087909 -0.02659662 -0.03754974 0.053137787 0.049514994 0.041194625
-0.20004013 0.30004594 -0.089192614 0.2673214 -0.060072884 0.19568488 0.09004527 -0.12439043
0.06351037 -0.15411302 -0.22875792 0.17293476 -0.039559104 0.22092997 0.17968562 -0.049784154
-0.011383658 -0.04290461 0.06388862 -0.12427104 0.023034733 -0.2782614 0.16709581 -0.10158111
-0.21201852 -0.055546965 0.087564535 -0.02156332 -0.18750043 -0.026487648 -0.070748076 -0.13009627
-0.033226058 0.19640449 -0.20092475 -0.08578908 0.0075497613 0.06650113 -0.00980761 -0.048086967
-0.008032653 -0.078487255 0.08614168 -0.20899686 -0.05018661 0.15847525 -0.15118958 -0.19644143
-0.06118521 0.14339152 -0.1424294 -0.07206639 0.16659515 0.09422249 -0.08787096 0.0077083386
0.27423206 -0.19323653 -0.058173113 0.13156034 0.2272192 0.05028892 0.031296216 -0.17712434
-0.14807124 -0.048437417 0.10943565 0.3217471 -0.104420185 -0.19428131 -0.024539642 0.08599282
0.17891233 0.00081141444 -0.012450919 -0.10498096 0.16838491 -0.083043665 0.07710589 -0.05455889
-0.07067002 -0.10265113 0.05854228 -0.14606895 -0.13705888 -0.18512076 -0.015189497 0.13429804
0.2245089 0.2996321 0.21131653 0.15645435 0.07331117 0.013666356 0.13506363 -0.07616696
-0.07673415 0.0042137797 0.17661409 0.10941695 -0.10734245 0.17863247 -0.04804487 0.13698448
0.059214666 0.20142652 0.07597155 0.06133333 0.01920343 0.0019248415 0.008186454 -0.11780741
0.10428453 0.08372794 -0.072735436 0.04658804 -0.058565833 -0.1258391 -0.017172677 0.10632287
-0.12003931 0.26522523 -0.11612358 -0.14018783 0.05113081 -0.039478682 0.15541697 -0.054343406
0.08036344 0.013990686 0.22266345 0.020986125 0.018604552 0.25030503 0.4184641 0.18586776

fc3.bias f4 [26]
00000000: 2d5f 3bbc c8a6 4d3d 9512 26bd 1eb6 2ebc
00000010: 26fb c4bd cd0a 87bd ffd0 f6bb b54d 91bd
00000020: cdd9 25be b4fa 713d e00e 453c d496 80bd
00000030: 1645 92bd 7d09 98bd 9088 85bc 231e 343e
00000040: e939 b0bd eb8f acbd e3e6 1e3e a0a4 b13d
00000050: 9dc1 523c 3915 3bbe 212a 413e bfd3 19bd
00000060: 7bf4 8c3c 1f9b a73b
-0.011436266 0.050207883 -0.040545065 -0.010663537 -0.09618215 -0.06593857 -0.0075322385 -0.070948996
-0.16196366 0.05907698 0.012027472 -0.06278768 -0.07142083 -0.07423685 -0.01630047 0.17589621
-0.086047955 -0.08425888 0.15517764 0.08673978 0.012863544 -0.18269815 0.18863727 -0.037555452
0.017206421 0.0051149274
