data/model/weights_lenet5.pth (torch, 255451 bytes, 10 tensors)

conv1.weight f4 [6, 1, 5, 5]
0	0xbd9bbab7	-0.076039724
1	0xbdbefb39	-0.09325261
2	0x3de99b36	0.11406557
3	0x3e57fdfe	0.21092984
4	0x3c96c955	0.01840655
5	0x3eaa4499	0.3325546
6	0x3ef45bb7	0.47726223
7	0x3eeb4121	0.45948127
8	0x3e845c14	0.258515
9	0x3e0f7d7b	0.14012711
10	0x3e76d342	0.24104026
11	0x3e74ed47	0.23918639
12	0x3e309042	0.1724253
13	0x3dc38169	0.095461674
14	0x3d32b363	0.043628108
15	0xbe9e1f89	-0.30883434
16	0xbe8c9fb5	-0.27465597
17	0xbefe2b62	-0.49642473
18	0xbee7965c	-0.45231903
19	0xbe98783b	-0.2977923
20	0xbe55a40d	-0.20863362
21	0xbec93eab	-0.39305624
22	0xbebfcb8a	-0.37459975
23	0xbe449804	-0.19198614
24	0x3d0f42f3	0.034975957
25	0x3dc2e624	0.09516552
26	0x3e8ac9ce	0.2710709
27	0x3e833d75	0.25632825
28	0x3ed57285	0.41688934
29	0x3e9c456a	0.3052171
30	0xbda39715	-0.07987801
31	0x3ebeb84a	0.37249976
32	0x3f00d4ca	0.5032469
33	0x3e94d361	0.2906752
34	0x3e2d018f	0.16895126
35	0xbb4ad010	-0.0030946769
36	0x3e5d38c4	0.21603686
37	0xbd5b6f17	-0.05357274
38	0xbebad631	-0.3649154
39	0xbef92acd	-0.48665467
40	0xbd4852f0	-0.04890722
41	0x3e15ce10	0.14629388
42	0xbe8d4241	-0.2758961
43	0xbedff829	-0.4374402
44	0xbed1737b	-0.40908417
45	0xbd9e5e7d	-0.07732866
46	0x3e132d61	0.1437278
47	0xbd856cbd	-0.06514881
48	0xbdd458a8	-0.10368472
49	0x3e782014	0.24230987
50	0xbe851e05	-0.25999466
51	0xbe7e8296	-0.24854502
52	0xbe826526	-0.25467795
53	0xbe39df11	-0.181515
54	0x3cf021ab	0.02931293
55	0xbd963157	-0.073336296
56	0xbe981ff8	-0.2971189
57	0xbd3c5047	-0.045974996
58	0xbe1c09aa	-0.15238062
59	0xbe04d12b	-0.12970416
60	0xbe6bf304	-0.23041922
61	0xbe91c38c	-0.28469503
62	0xbe223d33	-0.15843658
63	0xbe920602	-0.2852021
64	0xbe83c853	-0.25738773
65	0xbe9ac799	-0.30230406
66	0xbd4a92ae	-0.04945629
67	0xbdee6502	-0.116403595
68	0xbe76a6a0	-0.24087
69	0xbe1e8924	-0.15482002
70	0xbe4ce617	-0.20009647
71	0xbe9f4a69	-0.31111458
72	0xbe6ea453	-0.23304872
73	0xbe0444a4	-0.1291681
74	0xbde6116b	-0.11233791
75	0x3f2193c9	0.6311613
76	0xbe9c0422	-0.30471903
77	0xbf258f77	-0.64672035
78	0xbea4c1e8	-0.3217919
79	0x3ee93814	0.45550597
80	0x3f1c3c9e	0.61029994
81	0x3d39b5d9	0.04533944
82	0xbe3f561e	-0.18685195
83	0x3ce1de96	0.027571958
84	0x3ea0f53e	0.31437105
85	0xbd3c822a	-0.04602257
86	0x3ea5fe64	0.32420647
87	0x3d241c04	0.04006578
88	0xbe7ca845	-0.24673565
89	0x3c37dc8b	0.011222015
90	0xbde3f109	-0.11129958
91	0xbd69c381	-0.057071213
92	0xbcf200e2	-0.029541437
93	0x3d4e7712	0.050406523
94	0xbe235f4f	-0.15954326
95	0x3bb0b58a	0.005392735
96	0xbe70274e	-0.23452494
97	0x3d0808bf	0.033211466
98	0xbe44b158	-0.19208276
99	0x3d2dd10e	0.0424357
100	0x3e7e8d03	0.24858479
101	0x3e191516	0.1494945
102	0xbe5e6361	-0.21717598
103	0xbdffb02a	-0.124847725
104	0xbe44e22b	-0.19226901
105	0x3edabb8b	0.4272121
106	0x3f0f14c7	0.5589108
107	0x3e878a02	0.2647248
108	0x3dc46ae7	0.095907025
109	0x3dc1bd4c	0.09459934
110	0x3e801d6e	0.25022453
111	0x3ecebd02	0.40378577
112	0x3ef42d4e	0.47690815
113	0x3e3b3659	0.1828245
114	0x3dde1656	0.10844104
115	0xbda3fa17	-0.08006685
116	0x3dc21e50	0.09478438
117	0x3e3d4f41	0.18487264
118	0x3e2d8c08	0.16947949
119	0x3d3bec19	0.045879457
120	0xbe14474f	-0.14480327
121	0xbd296280	-0.041353703
122	0x3dbc5a65	0.09196929
123	0x3e2f2cd2	0.17106941
124	0x3cba07ea	0.022708852
125	0xbd306f52	-0.043074913
126	0x3ea2ed78	0.318218
127	0x3e8a0023	0.2695323
128	0xbe33d705	-0.17562492
129	0x3d9eebae	0.07759796
130	0x3dab49af	0.083636634
131	0x3f3149d5	0.69253284
132	0x3e7ab031	0.24481274
133	0xbea0f4f7	-0.31436893
134	0xbd820591	-0.06348718
135	0x3f0154c4	0.5051997
136	0x3f04ca4f	0.518712
137	0xbe6c0d16	-0.23051867
138	0xbef48409	-0.47756985
139	0xbe6dc35f	-0.2321906
140	0x3ecd9fdb	0.40161023
141	0x3e06d49c	0.13167042
142	0xbe74c27a	-0.23902312
143	0xbe935975	-0.28779188
144	0x3ca02aad	0.0195516
145	0x3e8ebcca	0.2787841
146	0xbd8857af	-0.06657349
147	0xbe8f0bee	-0.2793879
148	0xbe4cd3e9	-0.20002712
149	0xbe138465	-0.14405973

conv1.bias f4 [6]
0	0xbcfb83c4	-0.03070248
1	0x3eb33b2c	0.35006082
2	0x3dd58acf	0.10426866
3	0x3e7ba73f	0.24575518
4	0x3f07e019	0.5307632
5	0x3e89a9f1	0.26887468

conv2.weight f4 [16, 6, 5, 5]
0	0x3d983a0b	0.07432946
1	0x3dedaf6c	0.11605725
2	0x3dd0e2a7	0.101994805
3	0x3e19d65d	0.1502318
4	0x3b3ce06e	0.0028820294
5	0x3d1248b3	0.035713863
6	0x3d596e4a	0.053083695
7	0x3dd0b8c2	0.1019149
8	0x3db8f9ed	0.090320446
9	0xbb84c105	-0.00405133
10	0xbba9fdcf	-0.005187727
11	0x3d99e3b4	0.07514134
12	0x3dcf6746	0.1012712
13	0xbb09838b	-0.0020982947
14	0xbd22f992	-0.03978879
15	0x3ce5c0a5	0.028045962
16	0xbd4c421d	-0.049867738
17	0xbca55358	-0.020181343
18	0xbc89395c	-0.016750984
19	0xbc504acb	-0.0127131445
20	0xba3fe658	-0.00073203957
21	0xbdfe46fd	-0.12415884
22	0xbe2cb7b7	-0.16866957
23	0xbdc0f33f	-0.094213955
24	0xbcc237b5	-0.023708204
25	0x3d1928af	0.037392315
26	0x3d649098	0.055801958
27	0x3daf8a3c	0.08571288
28	0x3c979315	0.018502751
29	0xbc7aecac	-0.015315216
30	0xbd7927c6	-0.060828947
31	0x3d628345	0.05530097
32	0xbcccf354	-0.025018372
33	0xbd9fc4ac	-0.07801184
34	0x3da871bf	0.0822482
35	0xbe05d185	-0.13068207
36	0xbd9dd522	-0.077066675
37	0xbda090ed	-0.078401424
38	0xbe5b7cf6	-0.21434388
39	0xbe5566d5	-0.20840009
40	0x3db4290d	0.08796892
41	0x3dbb4885	0.091446914
42	0x3e0881ab	0.13330714
43	0x3de96022	0.11395289
44	0x3db5a08d	0.08868513
45	0x3d2545b5	0.04034968
46	0x3df89f94	0.12139812
47	0x3e115db6	0.14195904
48	0x3ddd1cb8	0.10796493
49	0x3ca354d5	0.019937912
50	0x3dd77e45	0.10522131
51	0xbb80f182	-0.00393504
52	0x3e010f46	0.12603483
53	0xbc9e9b67	-0.019361211
54	0xbb89bbfe	-0.0042033186
55	0x3d9c02b7	0.07617705
56	0x3e001db0	0.12511325
57	0x3dbd028c	0.092290014
58	0x3d2fe16d	0.042939592
59	0x3d106954	0.0352567
60	0x3d084483	0.033268463
61	0xbd6b17e3	-0.057395827
62	0xbd08e848	-0.033424646
63	0xbd8a3f78	-0.06750387
64	0xbc831fcb	-0.016006371
65	0xbd845d00	-0.06463051
66	0xbde48ea9	-0.11160023
67	0xbdc5441a	-0.0963213
68	0xbe117ce7	-0.14207803
69	0xbd7dffd9	-0.062011573
70	0x3ca1964a	0.019724984
71	0x3c1bc1a5	0.009506618
72	0x3ca70313	0.020387208
73	0xbd8d2b18	-0.06892985
74	0xbc1ecbdd	-0.0096921595
75	0x3c5ae5b4	0.01336043
76	0x3d3a75ba	0.04552243
77	0x3dea2281	0.11432362
78	0x3c0f70b4	0.008754898
79	0x3ce05e9e	0.027388867
80	0xbdaac5e6	-0.083385274
81	0xbcd2148e	-0.025644567
82	0xbdeaac22	-0.11458613
83	0xbd1ee95e	-0.038796775
84	0x3d631463	0.055439364
85	0xbe2dbbca	-0.16966167
86	0xbdb9ed1b	-0.090784274
87	0xbdf90487	-0.12159067
88	0xbe05b822	-0.13058522
89	0xbb890bd7	-0.0041823196
90	0x394f902a	0.00019794764
91	0x3d9fd3c4	0.07804063
92	0x3d2b1023	0.041763436
93	0x3dd0d13b	0.101961575
94	0x3c59947a	0.0132800285
95	0x3e241aaf	0.16025804
96	0x3dc5c486	0.096566245
97	0x3dbf325c	0.09335777
98	0x3dbbf020	0.091766596
99	0x3dbed9f7	0.09318917
100	0xbd43a7ee	-0.047767572
101	0x3d2e2d70	0.0425238
102	0xbc849564	-0.016184516
103	0xbdd30297	-0.10303228
104	0xbcf95903	-0.030437952
105	0xbe80f49f	-0.2518663
106	0xbe441d70	-0.19151855
107	0xbe19bee1	-0.15014221
108	0xbea09766	-0.31365508
109	0xbe9d213c	-0.30689418
110	0xbcb8b57a	-0.022547472
111	0x3cb6460e	0.022250202
112	0xbd625e19	-0.05526552
113	0x3b346cbe	0.0027530636
114	0xbe03de05	-0.12877662
115	0x3e1a12dc	0.15046257
116	0x3e3985b2	0.18117407
117	0x3dae5582	0.08512403
118	0x3e60492c	0.21902913
119	0x3dc129d0	0.09431803
120	0x3def516d	0.116854526
121	0x3cd40b9d	0.025884444
122	0xbcbd985b	-0.023143938
123	0xbd639fa6	-0.055572174
124	0xbd420ef9	-0.04737756
125	0xbd967b10	-0.07347691
126	0xbcd56858	-0.026050732
127	0x3ddd0215	0.10791413
128	0xbbd49dc4	-0.0064885337
129	0x3d8e72da	0.069555
130	0xbdb562c9	-0.088567324
131	0xbe010f90	-0.12603593
132	0xbe257cdf	-0.16160916
133	0xbdc8d892	-0.098069325
134	0xbded9a07	-0.11601644
135	0xbc679886	-0.0141354855
136	0xbe0fd3b8	-0.14045608
137	0xbe12fb30	-0.14353633
138	0xbda99476	-0.0828027
139	0xbe066a24	-0.13126427
140	0x3d801dc6	0.06255679
141	0x3e1257c4	0.14291292
142	0x3d58c366	0.05292072
143	0xbc7299db	-0.01480719
144	0x3d882e23	0.06649425
145	0x3dfe46bb	0.124158345
146	0x3d0fff56	0.035155617
147	0x3da1d45d	0.07901833
148	0xbc723daa	-0.01478521
149	0x3e09a346	0.1344119
150	0xbd624603	-0.05524255
151	0x3e012d4e	0.12614939
152	0x3e5baf67	0.2145363
153	0x3dce2361	0.10065342
154	0x3de38ca5	0.1111081
155	0xbda2144b	-0.07914027
156	0xbcafae5e	-0.02144545
157	0xbe01706e	-0.12640545
158	0xbc691774	-0.014226783
159	0xbdf4d125	-0.11953954
160	0x3d3a13f1	0.045429174
161	0x3ded29f4	0.115802675
162	0x3e68c4fe	0.22731397
163	0x3d9720ea	0.07379325
164	0x3dc86d8c	0.097865194
165	0xbcaaf322	-0.020867888
166	0xbcbde8fa	-0.023182381
167	0x3d647a6d	0.055780817
168	0x3dda5a8a	0.106618
169	0xbe34f413	-0.17671232
170	0x3c4fca4a	0.012682507
171	0x3c3cc319	0.011521124
172	0xbd90dd82	-0.07073499
173	0x3a3e9467	0.00072700385
174	0x3be0085f	0.0068369354
175	0x3da82d6d	0.08211789
176	0x3cce0261	0.025147619
177	0x3e18a555	0.14906819
178	0x3e0c064d	0.13674279
179	0x3d0e16e7	0.03468981
180	0xbdebe6c3	-0.11518624
181	0xbd829f60	-0.063780546
182	0xbd9476de	-0.072492346
183	0xbda1ad4e	-0.07894383
184	0xbdb691db	-0.089145385
185	0x3d135dc3	0.03597809
186	0xbd5e2b2d	-0.054240394
187	0xbda93fbd	-0.0826411
188	0x3d3a0182	0.045411594
189	0xbd9b5f26	-0.075865075
190	0x3e091f4c	0.13390845
191	0x3ed271c7	0.4110243
192	0x3f06ec44	0.5270426
193	0x3e8edf77	0.27904865
194	0x3e0807f2	0.13284281
195	0xbe2e1cda	-0.17003193
196	0xbe5f87ee	-0.21829197
197	0xbe44a2e8	-0.19202769
198	0xbe2862ee	-0.16443989
199	0xbd3de327	-0.046359207
200	0x3cc8aebe	0.024497386
201	0x3d32fca5	0.04369797
202	0xbd8a58a2	-0.067551866
203	0x3b81a4d6	0.0039564176
204	0xbb52b0e4	-0.0032148892
205	0xbc247548	-0.010037728
206	0x3dada588	0.08478838
207	0x3d52b4f6	0.05144211
208	0xbd627469	-0.0552868
209	0xbb7df20a	-0.0038749003
210	0xbdadcb14	-0.08486
211	0xbd2b5005	-0.04182436
212	0xbe6675ab	-0.22505824
213	0xbe39f21e	-0.18158767
214	0xbbd4fda6	-0.006499964
215	0xbca42fdb	-0.02004235
216	0x3d4af33e	0.04954838
217	0xbe0647c4	-0.13113314
218	0xbb0abebf	-0.0021170822
219	0x3ca52f30	0.020164102
220	0xbd7a3c6a	-0.06109277
221	0xbcea24bc	-0.02858197
222	0xbd709e1b	-0.05874453
223	0xbdbd9d3b	-0.09258505
224	0xbddbaaa5	-0.10725907
225	0x3dd667d7	0.10469025
226	0x3e24f91b	0.16110651
227	0x3e64c2f2	0.2233999
228	0x3cc97411	0.024591478
229	0x3ced85a8	0.028994396
230	0xbd68c4c8	-0.05682829
231	0xbe12808d	-0.1430685
232	0xbdc8437f	-0.09778499
233	0xbdb34a89	-0.08754451
234	0xbd826029	-0.06365997
235	0xbcd2ad9b	-0.025717547
236	0x3e139022	0.14410451
237	0x3e344e6e	0.17608044
238	0x3d45592e	0.04818075
239	0xba25f210	-0.00063303206
240	0x3d0d019b	0.03442536
241	0x3d4121aa	0.047151245
242	0x3d1e7d60	0.038693786
243	0x3ddc22b1	0.10748804
244	0x39f4ef8f	0.00046717792
245	0x3d3138b4	0.043266967
246	0x3c44012f	0.011963173
247	0xbdbcbd77	-0.09215825
248	0xbdd7feb9	-0.10546631
249	0xbd489a35	-0.04897519
250	0xbd1a10a5	-0.03761353
251	0xbcbeca41	-0.023289802
252	0x3da91b07	0.08257108
253	0x3bb1db61	0.0054277633
254	0xbe01146d	-0.12605448
255	0xbcc7b2c2	-0.02437723

conv2.bias f4 [16]
0	0xbd0a624b	-0.033785146
1	0x3c437c09	0.011931428
2	0x3b7acf2c	0.0038270457
3	0xbcb9d7f0	-0.022685975
4	0x3d33a35b	0.04385696
5	0xbc4854e3	-0.01222727
6	0xbcb52f7d	-0.02211737
7	0xbdccf269	-0.100071736
8	0x3d436269	0.047701273
9	0xbbbed955	-0.005824248
10	0x3d432931	0.047646705
11	0x3d10e5a4	0.035375252
12	0xbdfeaaf8	-0.124349535
13	0xbd391563	-0.04518641
14	0x3c790478	0.015198819
15	0xbd7c7c57	-0.061642017

fc1.weight f4 [120, 400]
0	0x3cda8a1f	0.02667719
1	0xbc03b041	-0.008037628
2	0xbabea92b	-0.0014546266
3	0xbcc8a9f3	-0.0244951
4	0xbc391459	-0.011296355
5	0x3af5ad06	0.0018743582
6	0x3ba7add8	0.0051171593
7	0x3ce40d8c	0.02783849
8	0xbd7737d5	-0.06035598
9	0xbd526372	-0.05136437
10	0xbcb14e26	-0.02164371
11	0xbd8f6d61	-0.07003284
12	0xbca92296	-0.020646375
13	0xbc1ed19a	-0.009693528
14	0x3cf6059f	0.030031977
15	0xbd377b94	-0.044795588
16	0xbda20e1e	-0.07912849
17	0x3cf99ed6	0.030471247
18	0xbbe3efc1	-0.006956071
19	0x3ce05491	0.027384074
20	0xbd6b8f85	-0.057509918
21	0xbc604b97	-0.013689897
22	0x3bc8ad5e	0.0061241826
23	0xbb62a8cf	-0.003458548
24	0xbd04d194	-0.03242643
25	0x3da60608	0.08106619
26	0x3c7b8f58	0.015354
27	0x3d567431	0.052356903
28	0x3cefcf77	0.029273732
29	0x3cb5be6e	0.02218553
30	0xbd1204e5	-0.0356492
31	0x3d843267	0.06454926
32	0xbc54e991	-0.01299514
33	0x3ca9661e	0.020678576
34	0x3d12eb18	0.035868734
35	0xbd809f3e	-0.06280373
36	0x3c9b5800	0.01896286
37	0xbd02f3d9	-0.031970832
38	0xbb4ad32f	-0.003094863
39	0xbcfe171d	-0.03101688
40	0xbc60d90a	-0.013723621
41	0xbc7b8ded	-0.015353662
42	0xbb29cf7e	-0.0025911028
43	0xbd82aad5	-0.0638024
44	0xbd79041f	-0.060794946
45	0xbd91bb02	-0.07115747
46	0xbd1ca688	-0.038244754
47	0xbdc666a8	-0.09687549
48	0xbaac301d	-0.0013136897
49	0xbd53fe86	-0.051756404
50	0x3ad7974d	0.0016448289
51	0x3cd5d558	0.026102707
52	0xbc24031b	-0.010010506
53	0xbbda2f76	-0.00665849
54	0xbd5c72b7	-0.053820338
55	0xbbee05dd	-0.0072638826
56	0x3ddd9c7b	0.10820862
57	0x3d191ce7	0.03738108
58	0xbd336387	-0.04379609
59	0x3d3c7229	0.04600731
60	0xbd95a214	-0.073063046
61	0xbcd2b27d	-0.025719875
62	0x3ca2de1a	0.019881297
63	0xbd69e65e	-0.05710446
64	0x3c27f8ba	0.010252172
65	0xbce974ec	-0.028498136
66	0x3de4dcce	0.11174928
67	0x3cedd62c	0.02903279
68	0x3d84d5dc	0.06486103
69	0xbcfe912c	-0.031075083
70	0xbd0cef51	-0.034407917
71	0xbc68d721	-0.014211447
72	0x3d53db1b	0.051722627
73	0xbd2812db	-0.041033607
74	0xbdcb512a	-0.0992759
75	0x3d1f0fb9	0.038833354
76	0x3c6748cb	0.014116476
77	0xbd686950	-0.05674106
78	0x3d76c596	0.060247026
79	0xbc6050b8	-0.01369112
80	0x3c62d96b	0.013845782
81	0x3d45f17d	0.048326004
82	0x3d2d549f	0.04231703
83	0x3d11c22a	0.03558556
84	0x3d8dbe11	0.06921018
85	0xbc1572fe	-0.009121655
86	0xbd830950	-0.063982606
87	0xbc9d022f	-0.01916608
88	0x3d8a7d65	0.06762198
89	0x3d325085	0.04353382
90	0xbd8469c0	-0.06465483
91	0xbde4be3a	-0.11169095
92	0xbd98eb23	-0.07466724
93	0xbc45ce8b	-0.012073169
94	0x3cb6f835	0.022335151
95	0xbd8fc9a7	-0.07020884
96	0xbddcd5d6	-0.107829735
97	0xbe5f64e8	-0.21815836
98	0x3d7a4cee	0.061108522
99	0x3da6f410	0.0815202
100	0xbdc868bf	-0.09785604
101	0xbdc988d2	-0.098405495
102	0xbd87294b	-0.06599673
103	0xbd0be027	-0.034149315
104	0xbd0750b2	-0.03303594
105	0x3da98051	0.082764275
106	0x3bc98299	0.0061496017
107	0xbc92e157	-0.017929716
108	0x3cd9870d	0.026553655
109	0x3cb8d53b	0.022562614
110	0x3d418511	0.047246043
111	0x3a4825e3	0.000763504
112	0x3d4cb893	0.04998071
113	0x3dc6b063	0.09701612
114	0x3d9582e3	0.07300355
115	0xbd180d44	-0.037122026
116	0xbe0b785b	-0.1362013
117	0xbde0b825	-0.10972623
118	0x3e00bedc	0.12572807
119	0x3d70c97b	0.058785897
120	0xbd2b7fd1	-0.041869942
121	0xbe07c108	-0.1325723
122	0x3c580be3	0.013186428
123	0x3dd5c5b1	0.10438097
124	0x3d814cc9	0.06313474
125	0x3b44604f	0.002996463
126	0xba4a8e8a	-0.00077269285
127	0x3c9dfff1	0.019287081
128	0x3c2a5ec0	0.010398567
129	0x3c4a4d45	0.012347524
130	0xbcad6e6f	-0.021170823
131	0xbd5306a4	-0.051520005
132	0xbc9c5159	-0.019081758
133	0x3bc86202	0.006115199
134	0xbc595710	-0.013265386
135	0xbd315e9d	-0.04330312
136	0xbd79a42e	-0.06094759
137	0xbd9c40e4	-0.076295644
138	0xbd6962d1	-0.056979004
139	0x3d239587	0.039937522
140	0xbd02bec8	-0.031920224
141	0xbcb07939	-0.021542178
142	0x3c66c5fd	0.01408529
143	0x3bd293b9	0.0064263013
144	0x3d11b384	0.03557159
145	0xbd2234d5	-0.039601166
146	0x3d07fc0f	0.033199366
147	0xbd5cebc0	-0.053935766
148	0xbc28b857	-0.010297856
149	0xbcb1ae7a	-0.021689642
150	0x3d7b3413	0.06132896
151	0x3c082b31	0.008311079
152	0x3cd4f1d3	0.025994217
153	0xbcdc8414	-0.026918449
154	0x3c243201	0.0100216875
155	0xbc8117c7	-0.015758408
156	0xbc97c3e3	-0.018526023
157	0xbd93fce0	-0.072259665
158	0xbba27bb7	-0.0049585956
159	0x3b9e1085	0.0048237466
160	0xbcfaa6f5	-0.03059719
161	0xbd96c0ed	-0.073610164
162	0x3a20b9d3	0.00061312056
163	0xbcbbb181	-0.022911789
164	0x3cfd2ebd	0.030906076
165	0xbd6e0ddc	-0.058118686
166	0xbcafa4a5	-0.021440813
167	0xbcd20b8c	-0.025640272
168	0xbd3e90ed	-0.04652493
169	0xbc92def3	-0.017928576
170	0xbdc8bb07	-0.09801298
171	0xbdb952ba	-0.09048982
172	0x3cd272af	0.025689451
173	0x3d926026	0.07147245
174	0x3d8c9391	0.068640836
175	0xbd5c5ce3	-0.05379952
176	0xbc0c8b72	-0.008578168
177	0xbd871a7b	-0.065968476
178	0xbc84828b	-0.016175529
179	0xbc5eb5dd	-0.013593164
180	0xb9a7109e	-0.00031865103
181	0xbcdaa351	-0.026689203
182	0x3d43b543	0.047780287
183	0x3cc3528e	0.023843076
184	0x3ce5beb6	0.02804504
185	0xbd906a98	-0.07051581
186	0x3c87d58e	0.016581323
187	0x3d5718a2	0.052513726
188	0x3dbf9195	0.093539394
189	0x3c85414a	0.016266484
190	0xbd66900f	-0.05628973
191	0xbcf2e7ab	-0.029651484
192	0x3d179b9d	0.03701364
193	0x3dc62989	0.09675891
194	0x3db43b83	0.088004135
195	0xbcc6d447	-0.024271144
196	0xbd8d9a27	-0.06914168
197	0xbc037937	-0.008024505
198	0x3c849422	0.016183916
199	0x3dac2d72	0.084071055
200	0xbd066e2b	-0.032819908
201	0xbcf01cac	-0.029310547
202	0xbc994538	-0.018709764
203	0xbca6ad71	-0.020346375
204	0x3d499d43	0.049222242
205	0x3951618c	0.00019968132
206	0xb944fc2f	-0.00018785962
207	0x3c4694a0	0.012120396
208	0xbce8c816	-0.02841572
209	0xbc1e1fbe	-0.009651123
210	0x3d77c894	0.06049402
211	0x3cc1c75a	0.023654629
212	0xbc9facc8	-0.019491568
213	0x3cb709c1	0.022343518
214	0xb9fc2190	-0.00048090192
215	0xbc6dc32c	-0.014511865
216	0xbcaf8d4f	-0.021429686
217	0x3d5e86e3	0.054327857
218	0x3cff53e8	0.03116794
219	0xbd31b789	-0.043387923
220	0xbd0dbfbf	-0.03460669
221	0xbd308448	-0.043094903
222	0x3d33ee28	0.043928295
223	0x3c3f2827	0.011667288
224	0x3d31d364	0.04341449
225	0x3d27e4ac	0.040989563
226	0x3dd42bc1	0.10359908
227	0x3db84fdf	0.08999609
228	0x3db78837	0.08961528
229	0x3c640e7b	0.013919468
230	0x3debe030	0.1151737
231	0x3d976b20	0.07393479
232	0x3c85e168	0.016342834
233	0xbc8a35e4	-0.0168714
234	0x3ca723cc	0.020402811
235	0x3cfdabb8	0.030965671
236	0xbde4d720	-0.11173844
237	0xbd5d0360	-0.053958297
238	0xbd1e3422	-0.038623936
239	0xbdcffff8	-0.10156244
240	0xbd5f4f22	-0.054518826
241	0xbde524a9	-0.11188633
242	0xbe4e4e0f	-0.20146964
243	0xbd0adb3f	-0.033900496
244	0xbda91431	-0.08255804
245	0xbdaaa4af	-0.08332192
246	0xbe689911	-0.2271464
247	0xbe6a3432	-0.22871473
248	0x3bdc7167	0.006727386
249	0x3db298aa	0.087205246
250	0xbd12475e	-0.035712592
251	0xbd9bf914	-0.07615867
252	0x3ba5e683	0.0050628795
253	0x3c9cf87f	0.01916146
254	0xbcd05737	-0.025432212
255	0xbc10e9ac	-0.008844774

fc1.bias f4 [120]
0	0x3cc64762	0.02420396
1	0xbd25453b	-0.040349226
2	0xbc6a5154	-0.014301617
3	0x3bb401a6	0.0054933606
4	0xbc852a5a	-0.016255546
5	0xbccc845f	-0.024965463
6	0x3ce08012	0.027404819
7	0x3cda3064	0.026634403
8	0xbd07c936	-0.033150874
9	0x3d57ff94	0.052733973
10	0x3c44269e	0.011972098
11	0xbd4b8049	-0.04968289
12	0x3ac61b07	0.0015114256
13	0xbc839777	-0.016063435
14	0x3d82aab6	0.06380217
15	0x3b78cde3	0.0037964515
16	0xbd33aece	-0.04386788
17	0x3d1475da	0.036245205
18	0xbd28b539	-0.041188452
19	0x3d0223f9	0.031772587
20	0x3c3d592d	0.011556906
21	0xbc91e0b3	-0.01780734
22	0x3c70dc5b	0.014700974
23	0x3c7dc8fb	0.015489812
24	0xbd085146	-0.033280633
25	0xbd009ed5	-0.031401474
26	0x3d591c99	0.05300579
27	0xbaf5bd6b	-0.0018748468
28	0xbca9ef5d	-0.02074402
29	0x3d0a131c	0.03370963
30	0xbd1a1dc9	-0.03762606
31	0xbaf1e824	-0.0018456024
32	0xbc01ef91	-0.007930652
33	0xbc39cca2	-0.011340292
34	0x3ba87adf	0.0051416005
35	0xbd386496	-0.0450178
36	0x3cb1da00	0.021710396
37	0x3d23af64	0.039962187
38	0xbc03ddd7	-0.008048496
39	0x3c8b88b7	0.017032964
40	0x3c8fa375	0.017533997
41	0x3caf6a50	0.021412998
42	0xbcf0b7ad	-0.029384458
43	0xbd1c661e	-0.038183324
44	0xbc740661	-0.014894099
45	0x3c2a1add	0.010382381
46	0x3d3b09ea	0.04566375
47	0x3cb3ddf6	0.021956425
48	0xbcb20a55	-0.021733442
49	0x3c15f6b4	0.009153057
50	0x3c813f19	0.015777158
51	0xbd075539	-0.03304026
52	0x3c150a45	0.009096687
53	0x3cf5a0af	0.029983846
54	0x3a96db23	0.00115094
55	0x3d0eaddf	0.034833785
56	0xbc2b60eb	-0.010460119
57	0xbca10349	-0.019654887
58	0x3cbdfd8b	0.023192188
59	0x3bfd0cbc	0.0077224653
60	0x3c6ba3e2	0.014382334
61	0xbd4dda85	-0.050257225
62	0x3d19f4c4	0.037586942
63	0xbcae7519	-0.02129607
64	0x3d3afda8	0.04565206
65	0x3d988292	0.07446779
66	0x3d416a9a	0.047220804
67	0x3bf5ab16	0.0074972017
68	0x3d553ac4	0.052057996
69	0x3c42eec2	0.011897745
70	0x3d3c960f	0.046041545
71	0x3d26bae3	0.040705573
72	0x3c23f5f8	0.010007374
73	0xbc4dcaaa	-0.012560526
74	0x3cd1c6cb	0.025607487
75	0x3d5dad34	0.054120257
76	0x3cf010a7	0.029304815
77	0xbcec28ae	-0.028827991
78	0x3cc87f23	0.024474686
79	0xbd020bd7	-0.031749573
80	0xbc75b501	-0.014996768
81	0x3cd708f3	0.026249385
82	0x3c94cc1f	0.018163739
83	0xbca644a2	-0.020296399
84	0x3c86bad4	0.016446508
85	0xbc80f793	-0.015743053
86	0xbd539c59	-0.051662777
87	0xbd057d08	-0.032589942
88	0x3b694ca0	0.003559865
89	0xbc1dd71e	-0.009633807
90	0x3cae191c	0.021252207
91	0x3d27ec2e	0.040996723
92	0x3cefe9b9	0.029286252
93	0xbc73c743	-0.014879051
94	0x3d4d6f2d	0.050154854
95	0x3cef9961	0.029247941
96	0x39e89dc2	0.00044368027
97	0x3b9ce228	0.004787702
98	0x3ad39556	0.0016142528
99	0x3caf70e8	0.021416143
100	0xbcfe6e44	-0.031058438
101	0x3c819439	0.015817748
102	0xbcc62706	-0.02418853
103	0x3d437563	0.04771937
104	0xbd0b5480	-0.034016132
105	0xbd09f4f6	-0.03368088
106	0xbc956c4c	-0.018240117
107	0x3d472393	0.04861791
108	0x3d657e15	0.056028444
109	0x3c4cce97	0.012500427
110	0xbd0c9f1f	-0.034331437
111	0x3c94f06a	0.018181045
112	0xbd0737ba	-0.03301213
113	0xbcb753e0	-0.022378862
114	0x3d2e9e7d	0.042631615
115	0xbc815daa	-0.015791733
116	0xbd138209	-0.036012683
117	0xbcb19aae	-0.021680202
118	0x3d4b7cff	0.049679752
119	0x3d285675	0.041098077

fc2.weight f4 [84, 120]
0	0xbd76fb38	-0.060298175
1	0xbe1ff3ea	-0.1562039
2	0xbe209d4b	-0.15685003
3	0xbd266f04	-0.040633217
4	0x3d93bb75	0.07213489
5	0x3cb0b2ed	0.021569693
6	0xbd8f647d	-0.070015885
7	0xbe0cfbdb	-0.1376795
8	0xbe10590b	-0.14096467
9	0x3dec4446	0.115364596
10	0x3daa1f42	0.08306743
11	0x3cbe8b2d	0.023259724
12	0xbd7b1b3c	-0.06130527
13	0xbdf723ff	-0.120674126
14	0xbd55103b	-0.05201743
15	0xbd1fd8ca	-0.039025106
16	0x3e0d4a0a	0.13797775
17	0x3db69db8	0.08916801
18	0x3c8f6c3f	0.01750767
19	0xb98a339b	-0.0002635986
20	0x3d6a07ea	0.057136454
21	0x3d95aab5	0.073079504
22	0xbd39f7b4	-0.045402244
23	0xbce04c0c	-0.027380012
24	0x3d8c453d	0.06849144
25	0xbcc1b521	-0.02364594
26	0x3dcf77ad	0.10130248
27	0x3d86311d	0.06552336
28	0xbd561de1	-0.05227459
29	0xbd2aa843	-0.041664373
30	0xbd58892b	-0.05286519
31	0xbc36b6b3	-0.011151957
32	0xbd83bded	-0.0643271
33	0xbdde9194	-0.108676106
34	0xbc495977	-0.0122893965
35	0xbd263c67	-0.040584948
36	0x3cb5f5ba	0.022211898
37	0x3d538007	0.05163577
38	0xbdfcdafb	-0.12346455
39	0xbd167160	-0.036729217
40	0x3baeb05f	0.0053310837
41	0x3de8a4dc	0.113595694
42	0x3c7be039	0.015373283
43	0x3dac7a4b	0.08421763
44	0x3e5b1b9c	0.21397251
45	0x3ad7592f	0.0016429777
46	0xbe1b98cd	-0.15195008
47	0x3d863618	0.06553286
48	0x3dea6cbd	0.114465214
49	0xbc8be797	-0.017078204
50	0x3da06203	0.07831194
51	0x3cdeb351	0.027185114
52	0x3c91e2dc	0.01780837
53	0xbd62260c	-0.055212066
54	0x3d9e03df	0.07715582
55	0xbd6df167	-0.058091547
56	0x3cab53c2	0.020913962
57	0x3d9c5ac4	0.076345
58	0x3cdbaec8	0.02681674
59	0xbd877948	-0.066149294
60	0xbc9cb11a	-0.019127417
61	0x3bb33168	0.005468536
62	0xbd866aad	-0.065633155
63	0x3d93deba	0.07220216
64	0xbe0dde08	-0.1385423
65	0x3de1505d	0.11001656
66	0x3d958180	0.07300091
67	0xbda3c4a4	-0.079964906
68	0xbda5ef87	-0.08102327
69	0xbd85c800	-0.065322876
70	0xbdb29bc6	-0.08721118
71	0x3e0c19a3	0.13681655
72	0xbc11baca	-0.008894632
73	0xbc605711	-0.013692633
74	0xbd1aa9ee	-0.037759714
75	0x3dde85ab	0.10865339
76	0xbdd114af	-0.10209023
77	0xbe55749e	-0.20845267
78	0x3dc2726b	0.0949448
79	0xbe1d3974	-0.15353948
80	0x3d67ade0	0.056562304
81	0x3d9fb558	0.077982605
82	0xbd680601	-0.05664635
83	0x3db2ef4d	0.08737049
84	0x3d21231e	0.03934013
85	0xbdd5597c	-0.104174584
86	0xbc113366	-0.008862352
87	0x3dcd522a	0.10025437
88	0xbd61c812	-0.055122443
89	0xbde723ed	-0.11286149
90	0xbd2f1731	-0.042746726
91	0xbd6ac917	-0.05732068
92	0x3d9fb532	0.07798232
93	0x3d9d55a5	0.07682351
94	0x3e26ef2f	0.16302179
95	0xbd0beba9	-0.03416029
96	0xbd3f25d1	-0.046666924
97	0xbd818cba	-0.063256696
98	0xbd2bf717	-0.04198369
99	0xbbbba129	-0.005725999
100	0x3c7362ea	0.014855126
101	0xbd1d4849	-0.038399015
102	0x3c1b9a3d	0.0094972225
103	0x3c814779	0.015781151
104	0x3c654634	0.0139937885
105	0x3cd8525f	0.026406465
106	0x3e5ba249	0.21448626
107	0x3e4aaae0	0.19791746
108	0x3e50372b	0.20333545
109	0x3da0893c	0.078386754
110	0xbc5849ed	-0.013201219
111	0xbc05f09f	-0.008175044
112	0xbc8dc030	-0.017303556
113	0x3dea8d36	0.11452715
114	0x3cff959d	0.03119927
115	0x3d0592d5	0.032610733
116	0x3d701813	0.05861671
117	0x3d1750fd	0.03694247
118	0xbd8b6ba4	-0.0680764
119	0xbd18923b	-0.03724883
120	0xbddc4ce6	-0.10756855
121	0xba9a7d5a	-0.0011786625
122	0x3c8f8754	0.017520584
123	0xbd7ab5e1	-0.06120861
124	0xbd31fbd2	-0.043453045
125	0xbb4f76dd	-0.0031656541
126	0xbd1ac6e2	-0.037787326
127	0xbdacf60c	-0.08445367
128	0xbc32fed4	-0.010925014
129	0x3e6b0662	0.22951654
130	0x3c0cac1a	0.008585954
131	0xbd27f4a1	-0.04100478
132	0x3de20653	0.110363625
133	0x3c336d87	0.010951406
134	0x3e06b232	0.13153914
135	0x3dc4640c	0.09589395
136	0xbdd72f39	-0.10507054
137	0x3c47e32c	0.012200158
138	0x3e766259	0.24060954
139	0xbcd9853a	-0.026552785
140	0x3e10dfff	0.14147948
141	0xbd34dea2	-0.04415763
142	0x3cf973d8	0.030450746
143	0xbcc0643e	-0.0234853
144	0xbde72d88	-0.11287981
145	0xbc737f05	-0.014861827
146	0xbd3670a2	-0.04454101
147	0xbd2318ed	-0.039818693
148	0xbc6cfd04	-0.0144646205
149	0xbcca57f5	-0.024700144
150	0xbdc75829	-0.09733612
151	0x3c6e4630	0.014543101
152	0xbd639065	-0.055557627
153	0xbde06b84	-0.10958007
154	0xbe2530a9	-0.16131844
155	0xbd52239d	-0.051303495
156	0xbcebe03f	-0.028793452
157	0xbe11b099	-0.14227523
158	0x3d8577f1	0.06517018
159	0xbe382b1e	-0.17985198
160	0xbdf50cbe	-0.11965321
161	0x3daa4b2c	0.08315119
162	0x3d52f464	0.0515026
163	0x3dcda1dc	0.10040638
164	0x3dc83ce7	0.09777241
165	0x3c1dd74b	0.009633849
166	0xbcfc878b	-0.03082635
167	0xbc6f2f16	-0.0145986285
168	0x3e19a5dd	0.15004678
169	0xbe0f0841	-0.13967992
170	0x3c850e10	0.016242057
171	0xbdb3cd87	-0.087794356
172	0x3d296588	0.041356593
173	0xbda8564e	-0.08219586
174	0x3d991e90	0.074765325
175	0xbcb0f6fe	-0.02160215
176	0xbe3889bb	-0.1802129
177	0x3da58cbe	0.08083485
178	0xbe13b85f	-0.144258
179	0xbdd463bd	-0.10370586
180	0xbdd1dc55	-0.10247103
181	0x3d2225cf	0.03958684
182	0xbdc21035	-0.094757475
183	0xbb76c463	-0.0037653677
184	0xbc19a74b	-0.009378265
185	0xbd3ae5ca	-0.0456293
186	0x3d720386	0.05908539
187	0xbe0ea452	-0.1392987
188	0x3b07892a	0.0020681121
189	0xbdad9c2e	-0.084770545
190	0xbd159134	-0.03651543
191	0xbd0f0314	-0.034915045
192	0x3da3383e	0.07969712
193	0xbd669ff4	-0.056304887
194	0xbca92c46	-0.020650994
195	0x3d5c6bbc	0.05381368
196	0xbcff28a7	-0.031147314
197	0x3d130484	0.03589298
198	0x3e60b7fb	0.21945183
199	0xbe0a3230	-0.13495708
200	0x3e291f4b	0.16515844
201	0xbc049ea3	-0.008094463
202	0xbe167708	-0.14693844
203	0x3d418711	0.04724795
204	0x3e1517cc	0.14559859
205	0xba85c951	-0.0010207092
206	0xbdf8585b	-0.121262275
207	0x3c981bb0	0.01856789
208	0x3dab4bbb	0.08364054
209	0xbde2c71a	-0.11073132
210	0xbdafdca5	-0.085870065
211	0x3d1fa459	0.038975094
212	0x3dee60e3	0.116395734
213	0x3dec3266	0.1153305
214	0xbdbe9976	-0.09306614
215	0x3e394a2a	0.18094698
216	0xbd16f805	-0.036857624
217	0xbd90761c	-0.070537776
218	0x3d94e263	0.07269742
219	0x3d52bc70	0.05144924
220	0x3d45c550	0.048283875
221	0xbc24a642	-0.010049405
222	0x3e00a5e8	0.12563288
223	0x3c2c5338	0.010517888
224	0x3cefb652	0.029261742
225	0x3da586f2	0.080823794
226	0x3ca04460	0.019563854
227	0x3d98a423	0.074531816
228	0x3b3061de	0.0026913802
229	0xbd2b542d	-0.041828323
230	0xbe0d3a41	-0.13791753
231	0x3e2c357f	0.16817282
232	0x3e050088	0.12988484
233	0x3dd00dc6	0.10158877
234	0x3e177ba3	0.14793257
235	0xbceccb3d	-0.028905505
236	0x3d219f49	0.039458547
237	0x3c414653	0.011796552
238	0xbe0060bc	-0.12536901
239	0xbce4cad2	-0.027928744
240	0x3e22b6eb	0.1589009
241	0xbe041ce0	-0.1290164
242	0x3c97745f	0.018488107
243	0x3cfabff8	0.030609116
244	0x3d583d95	0.052793104
245	0x3d8adbe2	0.067802206
246	0x3d52d66b	0.051474016
247	0x3db53136	0.08847277
248	0xbe133f53	-0.14379625
249	0x3d38d16a	0.045121588
250	0xbd3caffa	-0.04606626
251	0x3c918b2a	0.017766554
252	0x3ce227ec	0.027606927
253	0x3d579dc9	0.05264071
254	0x3de74d2e	0.11294018
255	0xbdd1cdd8	-0.1024434

fc2.bias f4 [84]
0	0x3c926f4f	0.017875342
1	0xbda967fa	-0.08271785
2	0x3d3cd4c3	0.046101343
3	0x3cdb513e	0.026772138
4	0xbda5bf38	-0.08093113
5	0xbdd4f8e0	-0.10399032
6	0xbd20b6ee	-0.039236955
7	0x3b845c3e	0.0040393164
8	0x3d857bf0	0.0651778
9	0x3c687d76	0.0141900685
10	0xbd371fff	-0.04470825
11	0xbd09465b	-0.03351436
12	0xbce86708	-0.028369442
13	0xbdc7ddd2	-0.09759106
14	0x3d8d3fdf	0.06896948
15	0x3db69504	0.08915141
16	0xbca4a1a3	-0.020096606
17	0xbdab6247	-0.08368354
18	0xbdac3b83	-0.084097885
19	0x3d908ce0	0.0705812
20	0xbc45f678	-0.0120826885
21	0xbc026ebb	-0.0079609705
22	0xbd31e877	-0.043434586
23	0x3d8e4158	0.06946057
24	0xbd2d5fef	-0.042327818
25	0xbb6eb521	-0.003642388
26	0xbd7f5b9a	-0.062343217
27	0xbcd9fbef	-0.02660939
28	0xbd96713c	-0.073458165
29	0x3d237797	0.03990897
30	0xbdb03611	-0.08604062
31	0x3daa4d3f	0.08315515
32	0x3d6f1dc2	0.05837799
33	0xbdacefc5	-0.0844417
34	0x3d9fa3a9	0.077948876
35	0xbd075d9b	-0.033048254
36	0x3d685e66	0.05673065
37	0x3d9e0cb7	0.07717269
38	0xbc5976dc	-0.013272967
39	0xbc77d884	-0.015127305
40	0xbdd65650	-0.104656816
41	0xbc39a8f4	-0.0113317855
42	0x3cf38e0e	0.029730823
43	0xbd921845	-0.07133535
44	0x3ca1a6ce	0.019732859
45	0xbd3a077a	-0.045417286
46	0xbdb26b70	-0.08711898
47	0x3d834ffa	0.06411739
48	0x3dd5411f	0.104128115
49	0xbd6e202d	-0.058136154
50	0x3bc794ec	0.006090751
51	0x3cbb7a37	0.022885425
52	0xbbb02938	-0.0053760074
53	0xbcaf1293	-0.021371162
54	0xbdb66631	-0.0890621
55	0xbcf87927	-0.030331207
56	0xbda70d24	-0.08156803
57	0xbd8996ff	-0.06718253
58	0x3dfb6b98	0.12276381
59	0xbd6dc3e3	-0.05804814
60	0x3c8463e9	0.016160922
61	0xbd2ef3f7	-0.04271313
62	0x3c8e8b55	0.017400423
63	0x3ca5338d	0.020166183
64	0x3d4887b3	0.048957538
65	0xbd9c96ae	-0.07645927
66	0xba0f7a68	-0.0005473257
67	0xb9ea3fa2	-0.00044679368
68	0xbd8d2d00	-0.06893349
69	0x3db3f0c5	0.087861575
70	0xbd5118ca	-0.05104903
71	0xbda4ed88	-0.08053118
72	0x3d8e3afc	0.06944844
73	0xba32ddb6	-0.00068231986
74	0x3d8c3948	0.06846863
75	0x3d0185f9	0.031621907
76	0xbd5bb0b3	-0.05363531
77	0xbbfc875f	-0.007706567
78	0xbd426fdc	-0.04746996
79	0xbb1aa38b	-0.0023596014
80	0x3dc7c7a1	0.09754873
81	0xbca692fa	-0.020333756
82	0x3d650828	0.05591598
83	0xbd0c2663	-0.034216296

fc3.weight f4 [26, 84]
0	0x3b8a9d97	0.004230212
1	0x3db2bf40	0.08727884
2	0xbdda5e0a	-0.10662468
3	0xbd323557	-0.0435079
4	0xbe1d0f3c	-0.15337843
5	0xbe06fd04	-0.13182455
6	0x3ddbc166	0.10730247
7	0xbe5d2a54	-0.21598178
8	0xbe439d94	-0.1910308
9	0x3d73ed34	0.059552386
10	0x3d6aa8d8	0.05728993
11	0x3d3b2077	0.045685258
12	0xbda46a97	-0.08028143
13	0xbdb0f594	-0.0864059
14	0xbe862603	-0.26200876
15	0x3d494d6d	0.049146105
16	0x3dc58f7b	0.09646507
17	0x3dd93a3d	0.10606811
18	0xbd12bf44	-0.035826936
19	0xbc9d15ea	-0.019175489
20	0x3b0ea0d0	0.0021763332
21	0x3e2b637a	0.16737166
22	0xba0642b9	-0.0005121637
23	0xbe2a03bf	-0.16602992
24	0xbdd4c66c	-0.103894085
25	0xbdb64f61	-0.08901859
26	0x3cd60c85	0.026129017
27	0xbd9828c9	-0.07429654
28	0xbe3f09d0	-0.18656087
29	0xbe4c10a6	-0.19928226
30	0xbd4e151a	-0.050313093
31	0x3de48670	0.111584544
32	0x3e4697bc	0.1939382
33	0x3d7ce520	0.061741948
34	0xbc986bb8	-0.018606052
35	0x3dfe9580	0.124308586
36	0xbd6b1048	-0.057388574
37	0x3e2c012b	0.1679732
38	0xbd4a0185	-0.049317855
39	0x3d21cf6e	0.03950446
40	0x3d603d91	0.054746214
41	0x3d040811	0.032234255
42	0xbe1ac51a	-0.15114251
43	0xbd8ba8ec	-0.06819329
44	0xbcd38d92	-0.025824342
45	0xbd992495	-0.074776806
46	0x3de47670	0.11155403
47	0xbe8a3e88	-0.27000833
48	0xbd098ac8	-0.033579618
49	0xbe50fb97	-0.20408474
50	0x3e7ef0ae	0.248965
51	0xbdc2f4b8	-0.09519333
52	0x3e1600d7	0.14648758
53	0xbddb8b36	-0.10719912
54	0xbe04d92a	-0.12973467
55	0xbeb680ce	-0.35645145
56	0x3d721f14	0.05911167
57	0xbdcd3734	-0.10020295
58	0xbe4feeaa	-0.20305887
59	0x3ea9b2ca	0.33144218
60	0x3eaf022b	0.34181342
61	0xbd75e1e3	-0.060029875
62	0xbc31b78c	-0.010846984
63	0x3de16675	0.1100587
64	0xbdd896ea	-0.105756596
65	0xbd1f9c63	-0.0389675
66	0xbe18e879	-0.14932431
67	0xbdfa0ec6	-0.12209849
68	0xbdbbfca3	-0.09179046
69	0xbe0ba413	-0.13636808
70	0x3e5aea65	0.21378477
71	0xbe4ec305	-0.20191582
72	0x3d6de320	0.05807793
73	0xbe1c2112	-0.1524699
74	0xbe250582	-0.16115382
75	0x3df1e1b7	0.1181063
76	0x3d0e17ee	0.03469079
77	0xbe102f4e	-0.14080545
78	0x3e37521f	0.1790242
79	0x3e14fcab	0.1454951
80	0x3bb95e21	0.005656973
81	0x3ebed5b5	0.3727242
82	0xbe67578e	-0.22591993
83	0x3e0dc10d	0.13843174
84	0x3d5cc6c1	0.053900484
85	0x3e7f8456	0.24952826
86	0xbdacaacf	-0.08431017
87	0x3de8f503	0.11374857
88	0x3df43198	0.11923522
89	0x3e4c5ec7	0.1995803
90	0xbd6214af	-0.055195507
91	0x3cd3b42e	0.025842752
92	0xbd7a3dfb	-0.061094265
93	0x3e1aa55a	0.15102139
94	0xbd42237f	-0.047397133
95	0xbc6f126a	-0.014591793
96	0xbd1f182a	-0.038841404
97	0xbda6f393	-0.08151927
98	0x3e010b06	0.12601861
99	0xbe696488	-0.22792256
100	0xbcfefb3c	-0.031125657
101	0xbd228d88	-0.039685756
102	0xbca026b1	-0.0195497
103	0xbb3a4dee	-0.0028427797
104	0x3e5821d3	0.21106653
105	0x3da6c99b	0.08143922
106	0xbea0ee17	-0.31431648
107	0x3d66dbb1	0.056361858
108	0x3d4602a2	0.048342355
109	0xbd418fbf	-0.047256228
110	0x3d86e105	0.06585888
111	0x3caa8748	0.02081646
112	0xbd813dcf	-0.06310617
113	0xbe0bd759	-0.13656367
114	0xbda595d3	-0.08085217
115	0xbcd5147f	-0.02601075
116	0xbd2cf470	-0.0422253
117	0x3d0c25bc	0.034215674
118	0x3d7064ee	0.058690004
119	0x3d3909b6	0.045175277
120	0xbe42ff79	-0.19042768
121	0x3e8df382	0.27724844
122	0xbdad00e9	-0.08447439
123	0x3e86c182	0.2631951
124	0xbd42c44c	-0.047550485
125	0x3e2efcce	0.17088625
126	0x3ddee920	0.10884309
127	0xbde52590	-0.11188805
128	0x3d486d6f	0.04893249
129	0xbe17c9e4	-0.14823109
130	0xbe3d656d	-0.18495722
131	0x3e38961e	0.18026015
132	0xbd42c9f2	-0.04755587
133	0x3e3e0908	0.18558133
134	0x3e339005	0.17535408
135	0xbce52c6a	-0.02797528
136	0xbbe45ab2	-0.0069688195
137	0xbd3483e5	-0.044071097
138	0x3d6cf669	0.057852183
139	0xbe0859ab	-0.13315456
140	0x3c7b2832	0.0153294075
141	0xbe752711	-0.23940684
142	0x3e1e3920	0.15451479
143	0xbdc61e98	-0.09673804
144	0xbe5591f4	-0.20856458
145	0xbd66bd52	-0.056332894
146	0x3da9b3b5	0.082862295
147	0xbbc1e6b2	-0.0059173936
148	0xbe3e0c88	-0.18559468
149	0xbd3245e9	-0.043523703
150	0xbd465ad2	-0.048426457
151	0xbe02a0bf	-0.12756632
152	0xbcbe4f6e	-0.023231234
153	0x3e31bf64	0.17358166
154	0xbe3682db	-0.17823355
155	0xbdbf47b4	-0.09339848
156	0xbc54b8bc	-0.012983497
157	0x3daec6d8	0.0853402
158	0xbc85d184	-0.016335256
159	0xbd3685ff	-0.044561382
160	0xbbbd449d	-0.0057760016
161	0xbd87e088	-0.06634623
162	0x3dc5ffd6	0.096679375
163	0xbe4d3130	-0.20038295
164	0xbd1af9f8	-0.037836045
165	0x3e3bdf8e	0.18346998
166	0xbe046144	-0.12927729
167	0xbe419ce0	-0.189075
168	0xbd82c8be	-0.06385945
169	0x3ddf7c05	0.10912327
170	0xbdf45463	-0.11930158
171	0xbdd2a48c	-0.10285291
172	0x3e2f5b06	0.17124566
173	0x3dba01b5	0.09082357
174	0xbdaa339b	-0.08310624
175	0x3cbebc81	0.023283245
176	0x3e878e37	0.2647569
177	0xbe35b6dc	-0.17745537
178	0xbd545096	-0.051834665
179	0x3dda2d84	0.10653213
180	0x3e468b84	0.19389158
181	0x3d425d03	0.047451984
182	0x3beb8532	0.007187509
183	0xbe1d81d6	-0.1538156
184	0xbe2359f3	-0.15952282
185	0xbd8a4284	-0.06750968
186	0x3de9a963	0.11409261
187	0x3e895682	0.26823813
188	0xbdbef3ab	-0.0932382
189	0xbe335f9e	-0.17516944
190	0xbb9d68d7	-0.0048037576
191	0x3d919101	0.071077354
192	0x3e1bb7bf	0.15206812
193	0x3b002619	0.0019553958
194	0x388df248	6.768532e-05
195	0xbdb1d9e5	-0.08684138
196	0x3e272a50	0.16324735
197	0xbd951328	-0.072790444
198	0x3d6308bb	0.055428248
199	0xbd4285f4	-0.04749103
200	0xbd93da56	-0.07219379
201	0xbdddd762	-0.10832097
202	0x3d862361	0.06549717
203	0xbe013416	-0.12617525
204	0xbdfede06	-0.12444691
205	0xbe32fb4f	-0.17478679
206	0xbc974827	-0.018467022
207	0x3df49a5e	0.11943506
208	0x3e47464e	0.19460413
209	0x3e947806	0.2899782
210	0x3e53ffc0	0.2070303
211	0x3e203117	0.15643726
212	0x3d90596c	0.07048306
213	0xbd0039ca	-0.031305112
214	0x3dfeca5c	0.12440941
215	0xbdc0228e	-0.09381591
216	0xbdab6392	-0.08368601
217	0x3c8a02be	0.01684701
218	0x3e2ebc75	0.17064078
219	0x3dbab047	0.091156535
220	0xbddc723c	-0.10763976
221	0x3e182470	0.1485765
222	0xbd683710	-0.056693137
223	0x3e2ad796	0.16683802
224	0x3d7ff67a	0.062490918
225	0x3e4e95ba	0.20174304
226	0x3d3ce68b	0.0461183
227	0x3daceae9	0.08443243
228	0x3c983f85	0.018584976
229	0xbc0524bd	-0.008126435
230	0xbc3ebf6f	-0.011642321
231	0xbdcbb41d	-0.09946463
232	0x3dc4f5a2	0.09617163
233	0x3d99c187	0.075076155
234	0xbd8cac16	-0.0686876
235	0x3d114d50	0.03547412
236	0xbd7cd2e6	-0.061724566
237	0xbdf2b89c	-0.11851618
238	0xbcf5fcd0	-0.030027777
239	0x3ddfd891	0.10929979
240	0xbddeefe7	-0.108856015
241	0x3e84d13d	0.25940886
242	0xbdc4858a	-0.09595783
243	0xbdfd7f12	-0.12377752
244	0x3d24a644	0.040197626
245	0xbd62fe80	-0.05541849
246	0x3dfd1d52	0.12359108
247	0xbd62f4f5	-0.05540939
248	0x3da8c331	0.08240355
249	0xbc5d2f01	-0.013499976
250	0x3e6b9ef9	0.23009862
251	0x3a02bdcf	0.000498739
252	0x3c482b17	0.012217305
253	0x3e6f510d	0.23370762
254	0x3ec91924	0.39276993
255	0x3e50bb21	0.20383884

fc3.bias f4 [26]
0	0xbce1d7a6	-0.02756865
1	0x3d24fd26	0.040280484
2	0xbd17e368	-0.037082106
3	0xbc8c7f69	-0.017150598
4	0xbdc83d00	-0.0977726
5	0xbd8005c1	-0.062510975
6	0x3b71ba5c	0.003688476
7	0xbd8b55fc	-0.068035096
8	0xbe2634cf	-0.16231082
9	0x3d83a020	0.06427026
10	0x3c947f4a	0.018127102
11	0xbd79668c	-0.060888812
12	0xbd90580e	-0.07048045
13	0xbd931860	-0.071823835
14	0xbc37692c	-0.0111945085
15	0x3e3031de	0.17206523
16	0xbdba57b0	-0.09098756
17	0xbda3c7e6	-0.07997112
18	0x3e20381e	0.15646407
19	0x3dbc5e94	0.09197727
20	0x3b64f2f1	0.0034934843
21	0xbe31b2f6	-0.17353424
22	0x3e3a7d18	0.18211782
23	0xbd17679a	-0.036964037
24	0x3c59b1ac	0.013286989
25	0x3b9f7de8	0.004867304
