data/model/weights_lenet5.pth (torch, 255451 bytes, 10 tensors)

conv1.weight f4 [6, 1, 5, 5]
-0.17039624 -0.2709688 -0.25794744 -0.2056667 -0.017583925 -0.04799858 -0.26227573 -0.26252016
-0.04592382 -0.18542804 -0.1176898 0.011236552 -0.06614693 -0.21798362 -0.10701516 0.017129738
0.16983065 0.002378189 -0.05116474 -0.18021831 0.30594924 0.008358906 0.25158682 -0.089536704
-0.11533593 -0.14701946 -0.16851158 0.30831626 0.37608284 -0.163547 -0.40518698 -0.35150322
0.34159377 0.53159636 -0.05362315 -0.5138681 -0.18615109 0.25673696 0.56736153 -0.018464789
-0.27100226 -0.34244278 0.033143777 0.3860695 -0.1239165 -0.022391777 0.061736405 0.2796944
0.04435915 0.054726794 -0.25890386 -0.15936777 -0.05323359 -0.31768906 0.024385964 -0.120283686
-0.15462857 -0.012491571 -0.0128824795 -0.037310436 0.4875582 0.45337036 0.25912395 0.05581738
0.33758792 0.32730842 0.4226287 0.5524538 0.27114117 0.51716155 -0.18837725 -0.084933355
0.02166786 -0.04892272 0.39156717 0.28437284 0.2666512 0.080229804 0.021759478 -0.39239314
-0.12021147 0.27646258 0.41014937 -0.13182807 -0.2279751 0.06627813 -0.048902165 0.54987115
0.116990276 0.022577625 -0.13401787 -0.100027114 0.2437177 0.39310703 0.26100993 -0.06879207
-0.047566053 0.16509955 -0.04095245 0.34831434 -0.24697116 0.1294443 0.3574244 0.10043372
-0.0057495413 0.09913787 0.34346947 0.38520706 0.08011179 -0.36902422 0.19922711 0.34992507
0.39092338 -0.37535498 -0.35369238 -0.11054983 0.423559 0.13181506 -0.16798306 -0.4564584
-0.012812416 0.3798616 -0.01401386 -0.1930011 -0.23954087 -0.3585682 -0.3443199 -0.29424796
-0.1290735 -2.9027695e-05 0.044745136 0.12974973 0.3274631 0.39224276 0.3626 0.3201231
0.6045429 0.23394911 0.43254995 0.13942905 0.29077473 0.19785896 -0.10841751 -0.05689162
-0.33036292 0.18791318 -0.32561302 -0.31781664 -0.48399693 -0.35653275
00000000: 5a7c 2ebe 6cbc 8abe b011 84be 4b9a 52be
00000010: 2a0c 90bc 299a 44bd 0149 86be 0b69 86be
00000020: 9e1a 3cbd d9e0 3dbe 5a07 f1bd 8419 383c
00000030: 0b78 87bd 1937 5fbe c42a dbbd aa53 8c3c
00000040: 16e8 2d3e 64db 1b3b 1e92 51bd 268b 38be
00000050: 61a5 9c3e cbf3 083c fdcf 803e 055f b7bd
00000060: 3e35 ecbd 458c 16be 4d8e 2cbe a1db 9d3e
00000070: ee8d c03e dd78 27be ab74 cfbe 3bf8 b3be
00000080: 61e5 ae3e b316 083f f3a3 5bbd dc8c 03bf
00000090: 649e 3ebe 0773 833e 9b3e 113f 7843 97bc
000000a0: cfc0 8abe a954 afbe c5c1 073d e7aa c53e
000000b0: efc7 fdbd f66e b7bc 50df 7c3d 1b34 8f3e
000000c0: f1b1 353d 3429 603d 0c8f 84be 4e31 23be
000000d0: 770b 5abd 24a8 a2be 13c5 c73c 4b57 f6bd
000000e0: f456 1ebe 72a9 4cbc 0911 53bc d4d2 18bd
000000f0: 3aa1 f93e 2920 e83e e5ab 843e c4a0 643d
00000100: 53d8 ac3e f894 a73e ca62 d83e 9d6d 0d3f
00000110: 04d3 8a3e b364 043f f7e5 40be 8af1 adbd
00000120: cc80 b13c 3163 48bd 7e7b c83e 5199 913e
00000130: 8286 883e 864f a43d ef40 b23c c1e7 c8be
00000140: 6e31 f6bd 818c 8d3e 19ff d13e f0fd 06be
00000150: 4e72 69be d4bc 873d a34d 48bd 5bc4 0c3f
00000160: 9998 ef3d b6f4 b83c fb3b 09be 04db ccbd
00000170: 2291 793e 5345 c93e 18a3 853e dbe2 8cbd
00000180: 9fd4 42bd db0f 293e c2bd 27bd 4256 b23e
00000190: 02e6 7cbe 0c8d 043e 5500 b73e 32b0 cd3d
000001a0: a666 bcbb cc08 cb3d 3bdb af3e dc39 c53e
000001b0: a611 a43d bef0 bcbe 3102 4c3e 6129 b33e
000001c0: 1c27 c83e 872e c0be 2b17 b5be f367 e2bd
000001d0: badc d83e 87fa 063e c003 2cbe eab4 e9be
000001e0: 2beb 51bc 387d c23e 649a 65bc 15a2 45be
000001f0: 344a 75be 4096 b7be b34a b0be aba7 96be
00000200: d82b 04be 8080 f3b7 ad46 373d 1ddd 043e
00000210: 3ea9 a73e 0bd4 c83e b5a6 b93e 2de7 a33e
00000220: 53c3 1a3f 5b90 6f3e 3077 dd3e 7dc6 0e3e
00000230: 6de0 943e 8a9b 4a3e 000a debd 3007 69bd
00000240: 5425 a9be 506c 403e c0b6 a6be ddb8 a2be
00000250: 72ce f7be 768b b6be

conv1.bias f4 [6]
0.11909579 0.26799744 0.36279264 0.051227137 0.12916063 0.27798232
00000000: 7ee8 f33d f636 893e f5bf b93e 8cd3 513d
00000010: af42 043e b353 8e3e

conv2.weight f4 [16, 6, 5, 5]
-0.014704973 0.039872102 -0.045448806 -0.06791133 0.028041776 0.03429677 0.07833056 0.03182171
0.10534243 -0.042254478 0.054750238 -0.04100252 0.039454266 -0.0046398495 0.0034319146 -0.04595164
-0.02955182 0.041466985 -0.07448621 -0.019271523 -0.0074086133 -0.005585778 -0.08910085 -0.0028485109
0.0020222657 0.017823504 0.0017399987 -0.12351607 -0.042318467 0.057315774 0.08271033 0.03210627
0.027777474 -0.013215706 -0.0070419936 -0.0074991575 -0.06145759 0.0038748549 0.080710925 0.06314713
-0.11018982 -0.032427773 0.034606162 0.015575834 -0.025817309 0.06597729 0.08106492 -0.06752369
0.10967158 0.02332461 -0.054891765 -0.10829078 -0.19141634 -0.15080355 -0.0996684 -0.009252689
-0.14152846 -0.049590606 -0.13144913 -0.06491482 0.18602093 0.12986135 0.054141093 0.051412392
0.110156424 0.13687274 0.014724833 0.13724533 0.051809713 0.052617844 0.0041287765 0.0035474827
-0.09815735 -0.07918519 -0.0638099 -0.10356305 -0.13167974 -0.10922754 0.029611202 0.057038784
-0.09451594 -0.059442043 -0.063803494 -0.031290036 -0.0870383 0.031662345 0.06685102 0.07828233
-0.013898164 0.040256694 -0.050259605 -0.06373971 -0.022595057 -0.033418525 0.02336545 -0.016464055
-0.030907221 0.07479159 0.07887001 -0.048894305 -0.0074117417 -0.025620537 -0.0819631 -0.004564341
-0.039017003 -0.08741382 -0.06799065 0.016479412 -0.06673663 -0.08722148 -0.041959103 0.009830747
0.029537303 -0.0061355825 0.019056564 0.11626277 0.069133125 0.04953616 0.0081772255 0.09453532
0.056004245 0.05084842 -0.03934135 0.018389154 -0.0052912813 0.047360726 0.029716983 -0.12690528
-0.11325228 -0.07592551 -0.035642613 0.019244358 -0.076490544 -0.020860463 -0.034678593 0.16403954
0.0725184 0.071477145 0.05124252 -0.0014121743 0.08906207 0.05749651 0.18704715 0.016342696
0.0727093 -0.13741355 -0.025164528 -0.020116603 -0.03803716 0.017157936 0.067685865 0.05943009
-0.059224 -0.054741222 -0.013782974 0.085426025 0.04769111 -0.06073689 -0.04638518 -0.017752541
-0.0037106383 0.029346919 0.018191803 0.09161332 0.049204748 -0.019344164 -0.009890013 -0.06813264
0.00038651912 -0.032544076 0.0453129 -0.09072467 -0.076789826 -0.044992395 -0.035808843 0.03884637
0.019761479 0.07735994 0.052277017 -0.031382896 -0.07987983 0.10796554 0.012926942 -0.05332752
-0.10300792 -0.06665468 0.060548667 0.12649861 -0.068346664 -0.020408 -0.0040018 0.16821735
-0.012510138 -0.0019075329 -0.10243108 0.046780553 0.11797059 0.056537427 -0.10614501 -0.06650572
-0.09840207 -0.025308184 0.017648622 -0.056028612 -0.11316599 -0.12090215 -0.07395521 0.014812594
-0.02984573 -0.030829154 -0.060651228 -0.09174002 -0.03487268 -0.10467572 -0.09277297 0.003461486
0.08675764 0.057725094 -0.13343894 0.013369256 0.06626091 0.05349653 -0.074708275 -0.084588826
-0.05356761 -0.0762702 -0.038547304 -0.08510921 -0.01984591 -0.003843509 -0.097142845 -0.06173137
-0.035297986 -0.050577246 0.012043817 0.02144131 0.043374117 -0.028672319 -0.00085469295 -0.083131164
-0.05054404 0.023641413 -0.058973685 -0.092428796 -0.09254775 -0.021760087 -0.038466495 -0.04407513
-0.10782611 -0.09321833 0.085152626 -0.07240952 -0.038163368 0.03204221 0.07635904 -0.06372713
00000000: 21ed 70bc ee50 233d 8728 3abd 1815 8bbd
00000010: deb7 e53c c57a 0c3d c66b a03d 7b57 023d
00000020: c6bd d73d 0813 2dbd c941 603d 42f2 27bd
00000030: cc9a 213d e109 98bb f9e9 603b c937 3cbd
00000040: a916 f2bc 49d9 293d 3a8c 98bd 50df 9dbc
00000050: f4c3 f2bb e708 b7bb 827a b6bd 15ae 3abb
00000060: fd87 043b 9902 923c ab10 e43a fef5 fcbd
00000070: 2156 2dbd f2c3 6a3d 0964 a93d dd81 033d
00000080: 968d e33c b086 58bc 86c0 e6bb 7ebb f5bb
00000090: f4ba 7bbd 47f1 7d3b c54b a53d 4853 813d
000000a0: 33ab e1bd fcd2 04bd 31bf 0d3d c831 7f3c
000000b0: d27e d3bc 1a1f 873d 5d05 a63d dc49 8abd
000000c0: 7e9b e03d 4113 bf3c 30d6 60bd 8ec7 ddbd
000000d0: a502 44be 3f6c 1abe f21e ccbd 9798 17bc
000000e0: d6ec 10be 851f 4bbd 9a9a 06be 10f2 84bd
000000f0: 457c 3e3e 60fa 043e 0dc3 5d3d cd95 523d
00000100: b199 e13d 5e28 0c3e 6d40 713c 0a8a 0c3e
00000110: 6c36 543d cf85 573d b04a 873b e27c 683b
00000120: b906 c9bd d82b a2bd c4ae 82bd dd18 d4bd
00000130: 0ed7 06be b0b2 dfbd 3193 f23c 80a1 693d
00000140: 9391 c1bd 8079 73bd 68ab 82bd fb29 00bd
00000150: 2341 b2bd 60b0 013d 30e9 883d 7c52 a03d
00000160: 20b5 63bc 34e4 243d 04dd 4dbd f789 82bd
00000170: 4519 b9bc dde1 08bd e668 bf3c a0df 86bc
00000180: 2431 fdbc 552c 993d 9a86 a13d 6545 48bd
00000190: 32de f2bb 29e2 d1bc 45dc a7bd 7890 95bb
000001a0: 4bd0 1fbd 0406 b3bd af3e 8bbd d5ff 863c
000001b0: 37ad 88bd 2da1 b2bd 4fdd 2bbd 2411 213c
000001c0: 37f8 f13c ff0c c9bb 831c 9c3c 2d1b ee3d
000001d0: ab95 8d3d 6ee6 4a3d c5f9 053c bc9b c13d
000001e0: b564 653d 6f46 503d 6524 21bd daa4 963c
000001f0: 7c62 adbb 52fd 413d 0871 f33c 75f3 01be
00000200: d0f0 e7bd d57e 9bbd fdfd 11bd 58a6 9d3c
00000210: 13a7 9cbd 90e3 aabc 240b 0ebd fbf9 273e
00000220: 8784 943d 9c62 923d ade3 513d b518 b9ba
00000230: 2d66 b63d 7681 6b3d 4a89 3f3e 1ee1 853c
00000240: 9de8 943d 23b6 0cbe d725 cebc 93cb a4bc
00000250: dacc 1bbd cd8e 8c3c e39e 8a3d f76c 733d
00000260: dd94 72bd 5538 60bd fcd1 61bc d7f3 ae3d
00000270: c157 433d 3fc7 78bd 63fe 3dbd c76d 91bc
00000280: 2e2e 73bb f368 f03c fa06 953c c49f bb3d
00000290: eb8a 493d a777 9ebc b909 22bc 2089 8bbd
000002a0: b8a5 ca39 f04c 05bd 059a 393d dbcd b9bd
000002b0: fc43 9dbd f249 38bd 4bac 12bd 5f1d 1f3d
000002c0: d3e2 a13c e36e 9e3d 6d20 563d 5a8b 00bd
000002d0: 0998 a3bd 091d dd3d 86cb 533c f56d 5abd
000002e0: d1f5 d2bd 4082 88bd e101 783d da88 013e
000002f0: 56f9 8bbd ae2e a7bc 8821 83bb 2b41 2c3e
00000300: 52f7 4cbc 2f06 faba 63c7 d1bd f79c 3f3d
00000310: 919a f13d ca93 673d 8e62 d9bd 2734 88bd
00000320: 0687 c9bd 1c53 cfbc d893 903c 427e 65bd
00000330: 92c3 e7bd 8c9b f7bd d475 97bd 86b0 723c
00000340: 087f f4bc 6c8d fcbc 6c6d 78bd 31e2 bbbd
00000350: a8d6 0ebd 3960 d6bd c1ff bdbd 19da 623b
00000360: fdad b13d 2671 6c3d 38a4 08be b90a 5b3c
00000370: cdb3 873d 2d1f 5b3d a700 99bd e83c adbd
00000380: b669 5bbd 8d33 9cbd c7e3 1dbd bd4d aebd
00000390: e493 a2bc 61e3 7bbb d4f2 c6bd 08da 7cbd
000003a0: 9f94 10bd 162a 4fbd 6e53 453c b0a5 af3c
000003b0: 0fa9 313d 36e2 eabc 790d 60ba ac40 aabd
000003c0: 4407 4fbd a3ab c13c 648e 71bd 4f4b bdbd
000003d0: ad89 bdbd 3642 b2bc 0b8f 1dbd 2088 34bd
000003e0: f0d3 dcbd 40e9 bebd 8064 ae3d 714b 94bd
000003f0: 3151 1cbd b13e 033d 2162 9c3d 5f83 82bd

conv2.bias f4 [16]
-0.02090506 0.020262731 -0.044320557 0.03436508 -0.045955278 0.008749093 0.032197032 -0.056148224
0.06541017 -0.018017735 -0.100219235 0.0018646941 -0.074014984 0.055293 0.05951283 -0.024988493
00000000: 1741 abbc 07fe a53c 7989 35bd 66c2 0c3d
00000010: 9a3b 3cbd 5b58 0f3c 09e1 033d aefb 65bd
00000020: c4f5 853d ee99 93bc be3f cdbd c068 f43a
00000030: 2b95 97bd ea7a 623d bac3 733d abb4 ccbc

fc1.weight f4 [120, 400]
0.029061561 0.029963171 -0.007425592 0.0061737415 -0.05348895 0.009744485 0.022309316 0.03980496
-0.02427759 -0.034864493 -0.023799114 -0.051618215 0.0063951565 -0.047694612 0.01904649 -0.026276981
-0.05638121 -0.056126446 -0.075758584 -0.056226738 -0.049515717 -0.034520563 0.018907664 0.029517537
0.050359897 -0.03495809 0.016998483 0.0138739785 0.004906424 -0.053313114 -0.003776885 0.013574322
0.044229623 -0.0130991675 -0.0071190107 0.008094231 0.045743052 -0.010606498 -0.039449383 0.035279397
0.03672238 0.009434475 0.037266426 0.027690496 0.02149567 -0.0030584068 -0.01656221 -0.03226412
0.052251033 0.04517636 -0.022659881 0.012657886 0.010260763 -0.035936773 0.024235416 -0.019944442
-0.0038162917 -0.10047749 -0.043006044 -0.06400499 -0.05585867 -0.019644283 -0.0048414655 -0.020211292
-0.004442716 0.02185409 0.038946915 0.037224118 -0.04303969 -0.046540506 -0.045873575 -0.02650441
-0.12613977 -0.05901729 0.012749083 0.06431844 -0.038887206 -0.056045633 -0.047139883 -0.035795126
0.06827302 0.016525446 0.010629814 -0.03350065 0.010720877 -0.061592113 -0.056633994 -0.041946482
-0.04861927 -0.03295745 -0.036958784 -0.02710259 -0.11135976 -0.016345112 0.048125904 -0.0138034355
-0.0706393 -0.054495808 0.0052340413 0.05675727 0.0042996854 -0.027870022 0.02006046 -0.0012108253
0.040152837 0.027671508 0.03999437 -0.015500135 -0.02740912 0.015474421 0.05880666 0.014677524
0.055404816 0.020341754 -0.029313697 0.030257948 0.03347186 0.02329214 0.019184936 -0.062172443
-0.029594058 -0.0017539401 -0.03708012 -0.006723943 0.05073912 0.012473952 0.0071674357 -0.017018981
0.03380615 -0.02304883 -0.03030314 0.05740543 -0.008103797 -0.032970745 0.0049102213 0.027756011
0.031856712 0.033795025 -0.033651404 0.067830905 0.011141842 -0.00808626 0.010360973 0.050284334
0.053833075 -0.036774322 -0.0765491 -0.0048640054 0.02071962 0.040516485 0.022629073 0.017536102
-0.02651592 0.021820797 -0.006442435 0.029784195 -0.01309612 -0.02349303 -0.0064635924 -0.049590975
0.011325468 0.018473508 -0.043900345 -0.03792703 0.027208341 -0.049748335 0.032433007 -0.09324619
-0.043138817 0.04107432 -0.012296701 -0.05635513 -0.06647982 0.06387209 0.034009393 -0.012635894
0.020521095 -0.016014144 0.025614986 -0.039922975 -0.034026086 -0.023576865 -0.06213045 -0.0041178907
0.0027636176 -0.02487643 0.05865123 -0.039044254 0.023372158 0.013032923 0.023380656 0.00806163
0.013939286 0.03397806 0.0035016441 -0.0057000187 -0.013375255 0.0017093405 0.008632695 0.006154002
0.01777719 -0.055923525 0.010085635 0.02299916 0.017358785 -0.060770627 0.026386453 -0.014084068
0.010202523 0.02678007 -0.017423933 0.029012226 -0.032216653 -0.042387173 -0.01217619 0.003852027
0.035853546 0.0009462897 0.039240737 -0.025523445 0.035670042 -0.021472735 0.029937232 0.006911501
-0.016381532 0.0481418 -0.024342688 -0.08332955 -0.0061660195 -0.024108764 0.0054743835 -0.042234406
0.026841156 0.038002856 -0.006144239 -0.09126023 -0.016642535 -0.0054940428 -0.062473036 -0.019033754
-0.04822348 -0.09095055 -0.12084364 0.039351095 0.032194443 -0.07876004 -0.017047122 -0.0361871
-0.013925908 0.0467126 0.045358557 0.010021791 0.014596859 0.029019644 -0.011240143 -0.005799989
00000000: 8312 ee3c 5375 f53c 6152 f3bb 194d ca3b
00000010: 3b17 5bbd 55a7 1f3c 07c2 b63c 870a 233d
00000020: cce1 c6bc 12ce 0ebd 5cf6 c2bc 9f6d 53bd
00000030: 768e d13b 6d5b 43bd 6207 9c3c d342 d7bc
00000040: fcef 66bd d8e4 65bd 5127 9bbd 024e 66bd
00000050: fed0 4abd 6f65 0dbd 3fe4 9a3c c3ce f13c
00000060: 2e46 4e3d 3730 0fbd 6740 8b3c af4f 633c
00000070: 11c6 a03b da5e 5abd 9e85 77bb d566 5e3c
00000080: 1f2a 353d e49d 56bc 9746 e9bb aa9d 043c
00000090: 115d 3b3d e1c6 2dbc ad95 21bd 2181 103d
000000a0: 356a 163d 0e93 1a3c aea4 183d 2ed7 e23c
000000b0: b017 b03c 8d6f 48bb 79ad 87bc 6227 04bd
000000c0: 2e05 563d d90a 393d 37a1 b9bc 0663 4f3c
000000d0: c21c 283c 7032 13bd 5a89 c63c 8762 a3bc
000000e0: c01a 7abb 24c7 cdbd 1b27 30bd 0c15 83bd
000000f0: 10cc 64bd 0ced a0bc 28a5 9ebb 2792 a5bc
00000100: 3494 91bb 5907 b33c cd86 1f3d 5178 183d
00000110: 634a 30bd 42a1 3ebd eee5 3bbd c71f d9bc
00000120: c92a 01be 1dbc 71bd 88e1 503c 63b9 833d
00000130: 3148 1fbd 1b90 65bd c015 41bd e99d 12bd
00000140: bad2 8b3d 5f60 873c ac28 2e3c fa37 09bd
00000150: 9ea6 2f3c 0348 7cbd 0cf9 67bd 13d0 2bbd
00000160: 0025 47bd 64fe 06bd 1862 17bd 4006 debc
00000170: 9610 e4bd 2fe6 85bc ab1f 453d ce27 62bc
00000180: 56ab 90bd ff36 5fbd 5282 ab3b 507a 683d
00000190: 60e4 8c3b ac4f e4bc d555 a43c 8eb4 9eba
000001a0: 4d77 243d 5caf e23c 23d1 233d 47f4 7dbc
000001b0: 1789 e0bc 6d88 7d3c 41df 703d ff79 703c
000001c0: 29f0 623d c0a3 a63c 4723 f0bc 84df f73c
000001d0: ca19 093d 28cf be3c ba29 9d3c 88a8 7ebd
000001e0: 3d6f f2bc 77e4 e5ba 53e1 17bd 8654 dcbb
000001f0: d3d3 4f3d 8c5f 4c3c cfdc ea3b 646b 8bbc
00000200: 5178 0a3d e6d0 bcbc 4a3e f8bc f521 6b3d
00000210: cac5 04bc 550c 07bd ece5 a03b 9360 e33c
00000220: 2f7c 023d a76c 0a3d 0ed6 09bd eeea 8a3d
00000230: 468c 363c 3c7c 04bc 12c1 293c f2f6 4d3d
00000240: 1280 5c3d aca0 16bd c6c5 9cbd 3c62 9fbb
00000250: 31bc a93c 9df4 253d 9b60 b93c dfa7 8f3c
00000260: ea37 d9bc 87c1 b23c 101b d3bb fcfd f33c
00000270: 1c91 56bc 7474 c0bc 8bcc d3bb e81f 4bbd
00000280: 758e 393c c155 973c d9d0 33bd 6059 1bbd
00000290: 07e4 de3c e9c4 4bbd 79d8 043d dcf7 bebd
000002a0: 54b2 30bd 8c3d 283d 1a78 49bc a3d4 66bd
000002b0: 9226 88bd 5fcf 823d 6f4d 0b3d c806 4fbc
000002c0: db1b a83c 1830 83bc 85d6 d13c 4686 23bd
000002d0: f05e 0bbd 4524 c1bc 807c 7ebd 5fef 86bb
000002e0: cf1d 353b a8c9 cbbc 463c 703d deec 1fbd
000002f0: f876 bf3c 0b88 553c ca88 bf3c ed14 043c
00000300: 9a61 643c 942c 0b3d d77b 653b 39c7 babb
00000310: e323 5bbc f30b e03a 2670 0d3c 83a7 c93b
00000320: 78a1 913c 1110 65bd 383e 253c bc68 bc3c
00000330: 0334 8e3c 9fea 78bd 6728 d83c ddc0 66bc
00000340: 7c28 273c e161 db3c a3bc 8ebc 0cab ed3c
00000350: 9cf5 03bd 2c9e 2dbd a47e 47bc 4a72 7c3b
00000360: 2bdb 123d 6d10 783a e5ba 203d 8b16 d1bc
00000370: c01a 123d 97e7 afbc ed3e f53c df79 e23b
00000380: 9032 86bc 5630 453d 516a c7bc afa8 aabd
00000390: 520c cabb be7f c5bc 7562 b33b fcfd 2cbd
000003a0: fce1 db3c e2a8 1b3d 9d55 c9bb a5e6 babd
000003b0: ed55 88bc 5f07 b4bb bae3 7fbd adec 9bbc
000003c0: fc85 45bd 4844 babd df7c f7bd 9d2e 213d
000003d0: 52de 033d f24c a1bd 68a6 8bbc ed38 14bd
000003e0: 7e29 64bc b655 3f3d e5c9 393d 7032 243c
000003f0: aa27 6f3c 9bba ed3c 9428 38bc d60d bebb

fc1.bias f4 [120]
0.04841582 0.047549136 -0.03634733 -0.031961873 -0.027077561 -0.052052017 0.013504725 -0.029937161
-0.012180938 -0.048148736 -0.035408016 -0.052433748 0.037820913 -0.0071462397 -0.04249229 -0.02679181
0.04204759 -0.03608296 0.0058878064 0.023861598 0.018398 -0.03588813 -0.038441475 -0.04176167
-0.03810196 0.010513869 -0.024555707 0.043167606 0.023418497 -0.013057812 -0.04593343 0.03699735
-0.020533174 -0.0345054 0.010917868 0.018782891 0.013165575 -0.018062018 -0.033435985 0.010751578
-0.00079629384 -0.0047168816 -0.0162496 0.0256757 0.019005885 0.050055023 -0.010159463 0.0033002833
-0.031217113 -0.024581945 -0.027400084 -0.016183449 -0.038926598 -0.036244567 -0.016978174 0.024152888
-0.046299268 0.0016670474 -0.020413639 -0.009911264 -0.044728946 0.004393788 -0.03431825 0.01618296
0.014134277 0.00068217085 0.06277943 -0.043492243 0.007967727 -0.023672478 -0.017935656 -0.04132843
-0.0048850067 0.039168414 0.04747623 0.022048099 0.04180008 -0.015340861 0.017338946 0.010996633
-0.007804909 -0.032394823 -0.032791134 -0.013659363 0.034930702 0.043799028 0.035417307 0.02660399
0.0120468 -0.013447997 -0.039774377 -0.04152574 0.017678896 0.019776937 0.011850015 -0.02462438
0.005273296 -0.016990108 -0.010734683 0.02287404 -0.0015714307 0.0022085193 -0.023459936 0.032300893
-0.029339643 -0.022737565 0.034483477 -0.00022937365 -0.016333085 0.05628387 0.02567509 0.011867566
0.037823763 -0.04106403 -0.0028731162 -0.02266592 -0.015549679 0.03187416 -0.03906519 -0.0006765327
00000000: ab4f 463d e2c2 423d f0e0 14bd 74ea 02bd
00000010: c3d1 ddbc 7f34 55bd ec42 5d3c c73e f5bc
00000020: 8f92 47bc 9c37 45bd ff07 11bd c5c4 56bd
00000030: 1aea 1a3d 012b eabb 650c 2ebd 7f7a dbbc
00000040: 183a 2c3d bacb 13bd 80ee c03b 6679 c33c
00000050: 67b7 963c 6fff 12bd cf74 1dbd 490e 2bbd
00000060: cd10 1cbd 5d42 2c3c 0d29 c9bc 84d0 303d
00000070: 26d8 bf3c 6ff0 55bc b124 3cbd 898a 173d
00000080: 3035 a8bc 8955 0dbd dce0 323c 94de 993c
00000090: 6db4 573c ccf6 93bc 2cf4 08bd 6327 303c
000000a0: 60be 50ba 1290 9abb e21d 85bc d855 d23c
000000b0: 3bb2 9b3c 7f06 4d3d e073 26bc 9149 583b
000000c0: 08bb ffbc 1360 c9bc 2476 e0bc 2793 84bc
000000d0: 7f71 1fbd 2f75 14bd d015 8bbc 47dc c53c
000000e0: 4da4 3dbd d480 da3a 813a a7bc db62 22bc
000000f0: b335 37bd c4f9 8f3b 4b91 0cbd 2092 843c
00000100: 7493 673c b6d3 323a 8092 803d ec24 32bd
00000110: 128b 023c c9ec c1bc cced 92bc 0048 29bd
00000120: 6812 a0bb 0f6f 203d 6f76 423d 379e b43c
00000130: 9036 2b3d 3c58 7bbc 680a 8e3c 392b 343c
00000140: 52c0 ffbb 6fb0 04bd ff4f 06bd 85cb 5fbc
00000150: 7f13 0f3d 9c66 333d bd11 113d 9cf0 d93c
00000160: f15f 453c fd54 5cbc 75ea 22bd e516 2abd
00000170: 55d3 903c 3e03 a23c 9126 423c 11b9 c9bc
00000180: 9dcb ac3b d72e 8bbc 86e0 2fbc 5762 bb3c
00000190: 77f8 cdba cebc 103b 0d2f c0bc f14d 043d
000001a0: b159 f0bc 2144 babc 8c3e 0d3d 0584 70b9
000001b0: f6cc 85bc ea89 663d 9154 d23c 2e70 423c
000001c0: 17ed 1a3d c232 28bd e44a 3cbb e1ad b9bc
000001d0: 15c4 7ebc 7b8e 023d d202 20bd 5759 31ba

fc2.weight f4 [84, 120]
0.110134795 0.06371384 -0.018130919 -0.07295065 -0.052097484 0.18885255 0.016464064 0.054349568
-0.062791154 0.058845967 0.006850509 -0.119483046 -0.052815564 0.056674715 -0.093002945 0.038796477
-0.04165581 0.09338114 -0.036401216 0.007166968 0.007271057 0.06464113 -0.031351168 0.0396693
0.07877217 -0.025077181 0.012219403 0.109122425 -0.043734886 0.10095189 -0.054716755 -0.10240371
0.004525825 -0.027961519 0.05392396 -0.0010793163 0.079322085 0.0070829205 0.017616587 -0.026433095
-0.08126117 0.0054111346 -0.021058936 -0.013631928 0.03139976 -0.025159871 -0.05580029 -0.008082656
0.02796541 0.097285874 0.03418114 0.0543669 -0.045381166 -0.046316773 0.11001448 -0.033874754
0.064236976 0.0701412 -0.12136944 -0.07019778 -0.08120917 -0.06212983 -0.07103513 -0.039844178
0.12192054 0.086236686 0.14087713 -0.037816584 0.05574703 -0.00260484 0.105253816 0.084242694
0.027536599 0.050370555 0.09210296 -0.060361642 -0.047965407 -0.02459275 -0.07317859 -0.09654742
-0.030580081 0.10886531 0.058142304 -0.08949244 -0.07246501 0.108361974 -0.079939835 -0.09404263
0.04890579 -0.013453268 -0.043303307 0.08195177 0.084942274 0.0072204904 0.07608347 -0.099018544
-0.107911766 -0.12882638 0.0251426 -0.12007486 -0.08120084 0.0021850748 0.027787881 0.09707674
0.103858784 -0.0032331808 0.04135778 0.06997716 0.032111775 -0.06775862 -0.016213315 0.030278392
0.0022898805 0.031395685 0.0041713617 -0.05945915 -0.0072955624 -0.0945197 0.0373952 0.005016963
0.06382897 -0.06353782 0.07918844 -0.07277446 -0.013356423 -0.038501557 0.053250745 0.01670307
-0.019991398 -0.028038425 -0.014679684 -0.09723351 -0.06270991 -0.013638491 -0.023338106 -0.001925302
-0.053811215 0.08842199 0.022563243 0.014159413 0.018422661 0.100725494 0.04047359 -0.039573666
-0.008699225 -0.0030032375 0.02227783 0.092147 0.049802333 0.063056774 -0.04649325 0.024906034
0.062256597 -0.005491763 0.07189869 -0.0038070928 -0.08058935 -0.08165501 -0.04255644 0.00022912298
0.07356889 0.115730815 0.11065551 -0.041370448 0.06770725 -0.014614012 0.02040856 -0.089584485
0.023278369 0.10465412 -0.06785941 0.0261869 0.06792307 -0.11340287 0.07281819 0.0584423
-0.068972066 -0.051143043 -0.03332296 -0.013392863 0.02989084 0.05483032 -0.06210877 -0.09482297
0.041154273 0.061264105 0.0664527 -0.028265618 -0.06404984 -0.0042832755 0.059787612 -0.03274028
-0.042535838 -0.051903877 0.04201775 0.01913622 0.10794901 -0.021787079 0.036876485 -0.013553865
0.079217345 0.06284187 0.036338765 0.035305288 0.012496458 -0.09359391 0.07506921 -0.03863722
0.073036164 -0.049333002 -0.01676192 0.059174247 0.094690405 -0.09192603 -0.08085289 -0.08956871
-0.06370431 0.06329731 -0.059937112 -0.05157304 0.036574002 -0.09265011 0.038589388 -0.026801
-0.060980838 -0.070845276 0.01715648 0.050142303 -0.020976406 -0.031168465 -0.066077866 -0.07337666
-0.08313738 0.077878706 0.09797024 -0.06656271 0.08939915 -0.06746145 -0.016391838 0.058830846
-0.13459225 -0.06433388 -0.00027203068 0.11591347 -0.01827121 -0.075142145 -0.05066587 -0.07267515
-0.09945949 -0.07875247 0.035752166 -0.05660607 0.030584214 0.048046533 -0.1064258 -0.057765566
00000000: 5a8e e13d 677c 823d 4b87 94bc 2667 95bd
00000010: 2c64 55bd 9062 413e a5df 863c a79d 5e3d
00000020: a698 80bd 7808 713d 3c7a e03b 87b3 f4bd
00000030: 2255 58bd bf23 683d 5478 bebd 0ee9 1e3d
00000040: 489f 2abd 9c3e bf3d 7119 15bd e3d8 ea3b
00000050: 0c42 ee3b 9262 843d 156a 00bd 477c 223d
00000060: 4e53 a13d a96e cdbc e433 483c 947b df3d
00000070: 5a23 33bd ddbf ce3d ad1e 60bd 09b9 d1bd
00000080: 5f4d 943b 8e0f e5bc 5fdf 5c3d d877 8dba
00000090: 9e73 a23d d817 e83b a950 903c 388a d8bc
000000a0: 426c a6bd e34f b13b ca83 acbc 7358 5fbc
000000b0: 099d 003d 131c cebc d88e 64bd 1e6d 04bc
000000c0: b717 e53c d13d c73d 8601 0c3d d4af 5e3d
000000d0: 9ae1 39bd a8b6 3dbd 464f e13d 41c0 0abd
000000e0: ad8e 833d 31a6 8f3d 8a90 f8bd dbc3 8fbd
000000f0: fe50 a6bd d97b 7ebd de7a 91bd a633 23bd
00000100: 7ab1 f93d dc9c b03d 1842 103e 90e5 1abd
00000110: ff56 643d f7b5 2abb 508f d73d 6f87 ac3d
00000120: 6f94 e13c 5b51 4e3d 7aa0 bc3d c53d 77bd
00000130: 6077 44bd bc76 c9bc a8de 95bd a7ba c5bd
00000140: 1483 fabc c7f4 de3d a026 6e3d d047 b7bd
00000150: 8968 94bd e2ec dd3d 7fb7 a3bd 6c99 c0bd
00000160: 7051 483d 196b 5cbc cf5e 31bd 54d6 a73d
00000170: 37f6 ad3d dd99 ec3b a6d1 9b3d 3cca cabd
00000180: d800 ddbd 10eb 03be dbf7 cd3c cfe9 f5bd
00000190: a04c a6bd 7933 0f3b 69a3 e33c 2bd0 c63d
000001a0: eab3 d43d c6e3 53bb c766 293d 2f50 8f3d
000001b0: a387 033d 08c5 8abd c9d1 84bc 640a f83c
000001c0: d211 163b c398 003d ebaf 883b 708b 73bd
000001d0: 9d0f efbb 8b93 c1bd b62b 193d 5665 a43b
000001e0: c3b8 823d 1e20 82bd 8d2d a23d c70a 95bd
000001f0: e6d4 5abc cfb3 1dbd 741d 5a3d e0d4 883c
00000200: 00c5 a3bc d7b0 e5bc 0f83 70bc 5d22 c7bd
00000210: 0e6e 80bd fa73 5fbc 8e2f bfbc 6a5a fcba
00000220: 2669 5cbd 9716 b53d 8dd6 b83c e2fc 673c
00000230: 1feb 963c 2b49 ce3d a3c7 253d ff17 22bd
00000240: 3287 0ebc f7d1 44bb ff7f b63c 91b7 bc3d
00000250: 88fd 4b3d e923 813d b56f 3ebd bd07 cc3c
00000260: c600 7f3d 3ff4 b3bb 9f3f 933d 6b80 79bb
00000270: 070c a5bd be3a a7bd a94f 2ebd bb40 7039
00000280: 49ab 963d 4704 ed3d 5b9f e23d 0f74 29bd
00000290: 19aa 8a3d 9c6f 6fbc da2f a73c 1278 b7bd
000002a0: 47b2 be3c e654 d63d e0f9 8abd e985 d63c
000002b0: 401b 8b3d c43f e8bd b421 953d 3161 6f3d
000002c0: 3a41 8dbd 5e7b 51bd a87d 08bd bd6d 5bbc
000002d0: a3dd f43c c295 603d c465 7ebd 8c32 c2bd
000002e0: 6291 283d 12f0 7a3d 5a18 883d 4c8d e7bc
000002f0: 902c 83bd b85a 8cbb dbe3 743d ac1a 06bd
00000300: 0f3a 2ebd 2999 54bd ce1a 2c3d 90c3 9c3c
00000310: 5f14 dd3d d17a b2bc cc0b 173d 0811 5ebc
00000320: b43c a23d 3db3 803d f5d7 143d 479c 103d
00000330: f2bd 4c3c 2aae bfbd e3bd 993d 1042 1ebd
00000340: fc93 953d 6711 4abd 4b50 89bc b260 723d
00000350: 0bed c13d b743 bcbd 3396 a5bd cd6f b7bd
00000360: 6877 82bd 05a2 813d 9e80 75bd 413e 53bd
00000370: 9fce 153d 57bf bdbd e80f 1e3d c58d dbbc
00000380: 0bc7 79bd 5417 91bd bf8b 8c3c 0462 4d3d
00000390: b6d6 abbc 0255 ffbc d553 87bd 8146 96bd
000003a0: ee43 aabd df7e 9f3d 9fa4 c83d 0852 88bd
000003b0: e716 b73d 3b29 8abd 2d48 86bc 9df8 703d
000003c0: 8dd2 09be 7bc1 83bd 579f 8eb9 0b64 ed3d
000003d0: 81ad 95bc 20e4 99bd 0487 4fbd b6d6 94bd
000003e0: 6bb1 cbbd fa48 a1bd dd70 123d c4db 67bd
000003f0: bf8b fa3c 71cc 443d c5f5 d9bd 969b 6cbd

fc2.bias f4 [84]
0.093952924 0.015578272 0.011070383 -0.021089906 0.046517484 -0.060192693 0.00723981 0.031280905
0.03587168 -0.082225844 0.06396932 0.09591595 0.02941871 -0.022164658 0.07041468 -0.048989434
0.018249149 0.07218031 -0.021791322 0.08097716 0.08075175 -0.047843285 0.08783183 -0.029524323
-0.06663656 -0.059804168 -0.0012085158 -0.051511593 -0.040593714 0.04438547 -0.005971148 0.09943128
0.07331429 0.011691753 -0.008600483 0.030347034 0.064147174 0.05889482 0.020880524 -0.010023643
-0.07910331 -0.013283155 -0.054215107 -0.009525492 -0.034303933 -0.10134102 -0.07979123 0.0118914535
0.006678977 0.09383939 0.08100924 -0.08281892 0.07940973 -0.06283943 0.09821853 -0.105014294
0.027235456 -0.03908841 0.0073361737 -0.007291408 -0.04268503 0.09515147 0.07372342 0.105575085
-0.018046878 -0.030172287 -0.07202486 0.0413539 -0.07265233 0.04112586 0.020358747 -0.06529985
0.08310029 -0.057558898 -0.035164863 0.06256671 0.0036225521 -0.05236424 -0.056038577 0.07060292
-0.036523193 -0.031208897 0.02153036 0.021173555
00000000: 646a c03d 023c 7f3c 8d60 353c bdc4 acbc
00000010: 1e89 3e3d 9d8c 76bd ee3b ed3b 6820 003d
00000020: 2fee 123d 0666 a8bd 5902 833d 956f c43d
00000030: 82ff f03c a892 b5bc 9235 903d 25a9 48bd
00000040: 3d7f 953c 45d3 933d b783 b2bc 5ad7 a53d
00000050: 2c61 a53d 52f7 43bd 2de1 b33d fedc f1bc
00000060: c078 88bd 37f5 74bd 1067 9eba d2fd 52bd
00000070: 9845 26bd 8acd 353d 9fa9 c3bb a0a2 cb3d
00000080: cd25 963d c48e 3f3c 0ae9 0cbc 589a f83c
00000090: 985f 833d b23b 713d a20d ab3c 353a 24bc
000000a0: eb00 a2bd 97a1 59bc a910 5ebd cf10 1cbc
000000b0: 4882 0cbd e18b cfbd 9669 a3bd 5fd4 423c
000000c0: 52db da3b de2e c03d 2ce8 a53d f79c a9bd
000000d0: 92a1 a23d f6b1 80bd cc26 c93d bc11 d7bd
000000e0: e41c df3c 2b1b 20bd 4964 f03b c3ec eebb
000000f0: 7fd6 2ebd c6de c23d 4efc 963d c037 d83d
00000100: 0cd7 93bc df2b f7bc c581 93bd b562 293d
00000110: bfca 94bd 9773 283d 63c7 a63c eebb 85bd
00000120: 7c30 aa3d e1c2 6bbd 0809 10bd fa22 803d
00000130: 5768 6d3b e37b 56bd b588 65bd 4498 903d
00000140: 5899 15bd cda9 ffbc 7060 b03c 2a74 ad3c

fc3.weight f4 [26, 84]
-0.17117485 -0.044534232 -0.20840926 -0.021765461 -0.17729323 0.0028228397 0.029209377 -0.15005869
0.0065996554 0.043035556 -0.07675035 -0.10285747 -0.006174735 0.101443104 -0.02059349 -0.15424821
0.012107909 -0.020676345 0.014248049 0.15357797 0.25329456 -0.13645828 -0.06086622 0.26616272
-0.12093504 0.07340986 -0.020368941 0.086411975 0.056500714 0.07496908 -0.06569644 -0.09031225
-0.022392478 -0.030533765 -0.182413 0.17930056 0.19278823 -0.0840563 0.30729052 -0.050326493
-0.28984597 0.047431003 0.047512554 -0.116375275 -0.10044503 -0.045942046 0.39056844 -0.16370471
0.05220044 0.05302526 -0.09179196 -0.012784845 -0.12724493 -0.013417158 0.008118332 -0.21655454
-0.13999072 -0.13978733 0.06511069 -0.010885622 0.02100968 0.015596484 -0.09366943 -0.106364675
-0.09719488 0.0075650695 0.14301392 0.025646077 0.15151219 0.23591477 -0.018505521 -0.00075050455
-0.04551265 -0.007427194 -0.023820845 0.07528281 -0.060963593 0.05538475 -0.075180665 0.11517928
0.027755693 0.017032642 0.07444492 0.10279924 -0.086512305 0.07106227 -0.007216228 -0.075879745
-0.15576893 0.38743934 0.10524178 -0.012651689 -0.03245087 -0.044407647 -0.009942644 -0.22057635
0.08264391 -0.01062949 -0.12744953 -0.19204684 -0.09683168 0.09437622 0.2073298 0.10971842
-0.12571286 -0.08843181 -0.04569074 -0.026478725 0.096897505 0.013968706 0.05424369 -0.2363604
0.28618234 0.05089067 -0.045346014 -0.009321323 0.07347839 -0.109398276 -0.006566708 0.15532447
-0.01702743 -0.07782455 0.044618834 0.007309628 0.1376542 -0.04121178 0.022152299 0.11266447
-0.108448714 -0.031625636 0.11638079 -0.17571163 -0.03919936 -0.09533902 -0.1505241 -0.098882526
-0.10040432 0.06430922 0.13061053 0.07143964 -0.062776625 -0.02012111 -0.0654799 -0.1856585
-0.15945576 0.13857608 -0.13174023 -0.002038329 0.0027189506 0.039182816 -0.047056794 -0.023860013
-0.074809104 -0.016998537 0.061955776 0.03894108 0.01791032 -0.07472356 0.00305155 -0.04317247
-0.062124457 0.11095297 0.22364652 -0.13348918 0.086749285 0.08596149 0.03822076 0.010953718
0.15119237 0.14291964 -0.1866022 -0.17241788 -0.14566447 0.13211995 0.013157302 -0.09825012
0.15315592 0.19762383 0.10129186 -0.0739503 -0.12712668 -0.08511469 0.13136964 0.11334265
-0.12381359 0.159316 -0.061238293 -0.040212605 -0.041537378 -0.09558634 0.005284158 -0.262306
0.037739333 -0.05605984 -0.07524089 0.1080564 0.07687248 0.045227513 0.09494921 0.12391544
-0.13172637 0.09999944 -0.0014435904 -0.18723224 -0.089962825 0.12142455 -0.097051464 0.03587854
0.05032772 0.08652403 -0.038023055 -0.08172115 0.059895832 0.23434904 0.0606058 0.23855108
-0.044794112 0.057887737 -0.11419333 0.09621048 0.037792645 -0.07790674 -0.10548897 0.16208799
0.107665576 -0.0044433847 -0.078992374 -0.011674702 0.14056468 0.0065278024 0.089311644 -0.031312115
0.045864478 0.07044684 0.087678716 -0.09752856 0.14282857 0.055349614 -0.012224673 0.121288754
-0.014324942 -0.045489293 -0.0197928 -0.18334411 0.01825521 -0.09920017 0.002820477 -0.106211156
0.06466281 -0.061714206 -0.07519314 0.12260168 0.18604003 0.066569865 -0.12242863 0.04226685
00000000: 7648 2fbe 8769 36bd 3d69 55be 7b4d b2bc
00000010: 5b8c 35be 64ff 383b 8148 ef3c fca8 19be
00000020: ec41 d83b 0d46 303d 4a2f 9dbd f0a6 d2bd
00000030: 6e55 cabb 67c1 cf3d aeb3 a8bc 3ef3 1dbe
00000040: 4060 463c 7061 a9bc a670 693c 8b43 1d3e
00000050: d3af 813e b8bb 0bbe dc4e 79bd 7b46 883e
00000060: caac f7bd e957 963d c4dc a6bc c3f8 b03d
00000070: 4b6d 673d 6489 993d db8b 86bd a1f5 b8bd
00000080: 6e70 b7bc f221 fabc 79ca 3abe 919a 373e
00000090: 476a 453e b625 acbd 2f55 9d3e 2723 4ebd
000000a0: b166 94be 0347 423d 869c 423d 2956 eebd
000000b0: 20b6 cdbd ba2d 3cbd 96f8 c73e 35a2 27be
000000c0: 21d0 553d 0431 593d 6cfd bbbd 8777 51bc
000000d0: 7f4c 02be a4d3 5bbc c102 053c 79c0 5dbe
000000e0: ba59 0fbe 6924 0fbe c158 853d 9c59 32bc
000000f0: 7e1c ac3c 6588 7f3c c2d5 bfbd b9d5 d9bd
00000100: 1c0e c7bd 67e4 f73b 3e72 123e b917 d23c
00000110: 0326 1b3e a493 713e e498 97bc 82bd 44ba
00000120: 796b 3abd d25f f3bb ef23 c3bc e02d 9a3d
00000130: f6b4 79bd 1fdb 623d 52f8 99bd 1de3 eb3d
00000140: e85f e33c 0a88 8b3c 9476 983d 6888 d23d
00000150: 5d2d b1bd 1889 913d 1c76 ecbb d766 9bbd
00000160: e481 1fbe 735e c63e 0189 d73d 0849 4fbc
00000170: 34eb 04bd cbe4 35bd 79e6 22bc c4de 61be
00000180: 3641 a93d 5027 2ebc 2182 02be eda7 44be
00000190: b04f c6bd 5248 c13d 434e 543e 0db4 e03d
000001a0: dfba 00be bd1b b5bd 3726 3bbd e9e9 d8bc
000001b0: 3372 c63d 00dd 643c a22e 5e3d 7608 72be
000001c0: 7e86 923e bc72 503d bebc 39bd 76b8 18bc
000001d0: d77b 963d 340c e0bd 8a2d d7bb 610d 1f3e
000001e0: 1c7d 8bbc 7a62 9fbd 3dc2 363d 9b85 ef3b
000001f0: 39f5 0c3e afcd 28bd bd78 b53c a1bc e63d
00000200: 5c1a debd e289 01bd 0d59 ee3d c0ed 33be
00000210: 828f 20bd 1b41 c3bd fd22 1abe ec82 cabd
00000220: c8a0 cdbd 8db4 833d c4be 053e f24e 923d
00000230: 0891 80bd 07d5 a4bc 531a 86bd 431d 3ebe
00000240: 5f48 23be e3e6 0d3e e9e6 06be 7c95 05bb
00000250: 6c30 323b 297e 203d a0be 40bd 1376 c3bc
00000260: 8435 99bd 8440 8bbc 57c5 7d3d af80 1f3d
00000270: aab8 923c aa08 99bd 83fc 473b 9ed5 30bd
00000280: 3776 7ebd 503b e33d 9803 653e 63b1 08be
00000290: 9ca9 b13d 940c b03d 5f8d 1c3d 3977 333c
000002a0: 2cd2 1a3e 8759 123e a614 3fbe 508e 30be
000002b0: 1129 15be 744a 073e b991 573c 5c37 c9bd
000002c0: e8d4 1c3e e75d 4a3e 1b72 cf3d 4173 97bd
000002d0: 7f2d 02be 9c50 aebd c385 063e 3120 e83d
000002e0: fb91 fdbd bc23 233e 01d5 7abd f9b5 24bd
000002f0: 1923 2abd c5c2 c3bd bb26 ad3b f94c 86be
00000300: 8f94 1a3d 019f 65bd e517 9abd ad4c dd3d
00000310: 526f 9d3d 7c40 393d bb74 c23d 61c7 fd3d
00000320: 47e3 06be 82cc cc3d db36 bdba cfb9 3fbe
00000330: 6e3e b8bd 6fad f83d ebc2 c6bd 60f5 123d
00000340: 7024 4e3d 8333 b13d 10be 1bbd 6b5d a7bd
00000350: 5555 753d 32f9 6f3e ca3d 783d bc46 743e
00000360: 087a 37bd b11b 6d3d 31de e9bd 000a c53d
00000370: 76cc 1a3d 928d 9fbd 9a0a d8bd 65fa 253e
00000380: c57f dc3d d099 91bb c1c6 a1bd 4047 3fbc
00000390: 30f0 0f3e 2de7 d53b 06e9 b63d 2241 00bd
000003a0: 64dc 3b3d 6f46 903d e690 b33d 0ebd c7bd
000003b0: a741 123e 47b6 623d ff49 48bc 3d66 f83d
000003c0: 29b3 6abc fb52 3abd 8324 a2bc 8fbe 3bbe
000003d0: f38b 953c 7529 cbbd c0d7 383b 3c85 d9bd
000003e0: ef6d 843d 09c8 7cbd dcfe 99bd 9716 fb3d
000003f0: 4781 3e3e c855 883d ddbb fabd 0120 2d3d

fc3.bias f4 [26]
-0.07303665 0.04642961 -0.054600548 0.10021902 -0.0013805341 -0.031609606 -0.06120094 -0.0429527
-0.04023979 0.14080319 -0.020636374 0.016477043 -0.08314878 0.08913885 -0.18790245 0.09430904
0.059334762 -0.076613 -0.08474441 0.034952827 0.008630733 -0.11030313 0.1247392 -0.029333282
0.04681919 0.004181674
00000000: 3d94 95bd fa2c 3e3d d3a4 5fbd a13f cd3d
00000010: 0af3 b4ba 1379 01bd d6ad 7abd 2cef 2fbd
00000020: 7ad2 24bd b62e 103e 9d0d a9bc ddfa 863c
00000030: e849 aabd 6e8e b63d 8069 40be 1925 c13d
00000040: 0209 733d 47e7 9cbd 7a8e adbd b22a 0f3d
00000050: eb67 0d3c 9be6 e1bd 4477 ff3d 5a4c f0bc
00000060: 7bc5 3f3d 6d06 893b
